coffeetracker/assets/expenditure_forecast_model_3m.tflite (tflite, 516460 bytes, 11 tensors)

sequential_58/lstm_86/Read_2/ReadVariableOp f4 [400]
000000 14 41 ab 3d 8e 36 1f bd 25 02 06 bc 62 53 90 bd
       0.08362022 -0.038870387 -0.008179222 -0.07047154
000010 c9 97 77 bd b4 4f 15 bc c8 74 48 bc a7 dd 26 bd
       -0.060447488 -0.009113241 -0.012234874 -0.040738728
000020 85 5f 04 3e bf ce f3 bd 91 46 c5 bd 3d 0b 11 bd
       0.12927063 -0.11904668 -0.096326 -0.03541111
000030 f2 5d b0 3a b8 6b f1 bc 3c 05 18 bd da bc 5e 3e
       0.0013455732 -0.02947031 -0.037114367 0.21751729
000040 58 05 6e 3c 04 80 97 bc 1a 42 c8 bc d6 3d 8e 3c
       0.014527641 -0.01849366 -0.024445582 0.01736347
000050 5c b1 00 3e 1e 71 e9 3b 5e 52 be be 83 81 a0 bd
       0.12567657 0.0071240803 -0.37172216 -0.078372024
000060 8e 3b 65 bd 84 d5 6c bd 2e 88 f0 bc 0d 16 b3 bc
       -0.055965 -0.057820812 -0.02936181 -0.0218611
000070 73 d8 63 3d 29 e4 dc bd 16 14 90 bd 6b 5d cc 3c
       0.055626344 -0.107857056 -0.07035081 0.024946889
000080 72 73 aa 3d f5 e3 7e bc 3a 36 46 bc 6d ce 0a be
       0.08322801 -0.015557279 -0.01209789 -0.13555308
000090 dd f8 ce 3c 2a 85 59 bb 83 66 25 bd 4e 01 ac bc
       0.025265152 -0.0033190944 -0.040380966 -0.020996716
0000a0 a9 ee f8 3c 1d 31 60 3c 52 ac 0c bd 9e f6 94 3c
       0.03038724 0.0136835845 -0.034344025 0.018184002
0000b0 9b 9d 9a bd 60 30 c7 bd 00 72 e6 bd 36 dd 0b be
       -0.07549592 -0.09726024 -0.112522125 -0.13658604
0000c0 47 e5 48 bc 9d db 74 ba a2 c0 f9 bd 99 5e e6 bc
       -0.012261695 -0.0009340586 -0.12194945 -0.02812128
0000d0 8d 4d 57 3d e7 9d 35 bd 95 96 ca bc be 07 4f 3c
       0.052564193 -0.04434004 -0.024730006 0.012636123
0000e0 df d8 af 3c 06 fa d9 3b ad 83 2e bd 32 e1 60 bd
       0.021465717 0.0066521196 -0.042606045 -0.054902263
0000f0 e2 ca 84 3c 5e c4 fb 3c 0d 29 1f bd af 5f b2 3b
       0.016210023 0.030733284 -0.03885751 0.0054435353
000100 dc 54 9d bd cf e1 b0 bc fa 2c ab 3d 09 81 a8 bc
       -0.07682201 -0.021592049 0.08358188 -0.020569341
000110 d4 1e ec bc 87 05 52 bd 19 0d d9 3b 9a 88 e7 3d
       -0.028823294 -0.051274803 0.006623876 0.113053516
000120 38 86 89 bd ed bb 4e bd 0a fc 61 3c d9 dc 84 3c
       -0.06715053 -0.05047219 0.013793001 0.01621859
000130 11 21 69 3d 88 97 22 3c 80 53 93 3c e5 34 32 bd
       0.0569163 0.009923823 0.017984152 -0.043507475
000140 9e b6 84 bd aa 79 da bc d2 0a 69 bc 7d 95 95 3c
       -0.06480144 -0.026669342 -0.014223771 0.018259758
000150 d8 ab 6e bd 0f 32 0b 3e 0a ee 7d bd dd 89 22 3c
       -0.05826935 0.13593315 -0.06199459 0.0099205645
000160 97 62 a1 bc 08 35 93 bc 3c 51 71 bd 57 e1 15 3d
       -0.019700332 -0.017969623 -0.05891536 0.036591854
000170 0c 10 60 bd c3 c7 b4 bd fa 24 10 bd 22 4d ff 3b
       -0.054702803 -0.08827164 -0.035191514 0.0077911774
000180 e7 47 9f bc 9b b7 fa 3d a5 c2 d5 bc 15 86 e2 bd
       -0.019443465 0.12242051 -0.02609379 -0.1106073
000190 2c e8 46 3f 08 a5 72 3f e8 d1 6a 3f a9 83 3e 3f
       0.77698016 0.9478307 0.9172654 0.7441965
0001a0 3e 1f 4f 3f 83 ce 75 3f 61 ea 68 3f 61 aa 58 3f
       0.80907047 0.96018237 0.90982634 0.8463498
0001b0 58 2f 44 3f 8f b1 3a 3f 86 af 4d 3f a0 08 6e 3f
       0.7663474 0.7292718 0.8034595 0.9298191
0001c0 37 81 71 3f 68 cd 69 3f 89 66 6f 3f fb b3 1f 3f
       0.9433779 0.9132905 0.9351583 0.62384003
0001d0 2e 00 70 3f cd d0 6f 3f de c4 75 3f e2 cd 6e 3f
       0.93750274 0.9367798 0.9600352 0.932829
0001e0 e4 77 24 3f 5a 85 6f 3f 10 1a 24 3f 6e e2 2c 3f
       0.6424544 0.93562853 0.6410227 0.67533004
0001f0 dd cc 5e 3f c7 ff 6d 3f ae f0 76 3f 8b a3 75 3f
       0.87031347 0.9296841 0.96461 0.9595267
000200 f5 01 64 3f 6c b5 5c 3f b6 ab 66 3f 9f 0d 6c 3f
       0.89065486 0.8621433 0.9010576 0.92208284
000210 29 b4 47 3f 4b 3e 7b 3f d8 8a 6b 3f 60 3d 47 3f
       0.7800928 0.98141927 0.92008734 0.77828026
000220 9d 84 72 3f 9f 40 57 3f ef 17 72 3f 52 04 71 3f
       0.947336 0.8408298 0.9456777 0.9414722
000230 8d 3c 56 3f 01 21 3d 3f 24 21 49 3f be f9 75 3f
       0.83686143 0.73878485 0.78566194 0.960842
000240 3c 2e 75 3f 3b af 4d 3f 58 9f 73 3f 34 87 6c 3f
       0.95773673 0.80345505 0.95165014 0.92393804
000250 13 44 6a 3f 58 c7 62 3f c3 fa 51 3f 95 18 71 3f
       0.91510123 0.88585424 0.82023257 0.94178134
000260 9c bd 6f 3f ec d0 2d 3f 4b ae 6a 3f ed 07 5b 3f
       0.93648696 0.67896914 0.916722 0.8555897
000270 a7 23 74 3f e5 cf 68 3f 28 99 71 3f 70 2d 78 3f
       0.953669 0.9094222 0.9437432 0.9694433
000280 ae 3c 7c 3f a0 3b 56 3f 26 c9 70 3f d8 0e 5f 3f
       0.9853009 0.8368473 0.9405693 0.87132025
000290 1b d6 49 3f de 92 58 3f 53 8d 47 3f 1c da 62 3f
       0.78842324 0.845991 0.7795002 0.8861406
0002a0 e3 6b 72 3f 59 a6 4c 3f 13 f9 69 3f b7 4b 28 3f
       0.9469587 0.79941326 0.9139568 0.6574053
0002b0 01 8d 71 3f c8 35 73 3f 94 80 70 3f 21 0a 6f 3f
       0.9435578 0.9500394 0.93946195 0.9337483
0002c0 0b 3e 35 3f 71 c1 6d 3f ea dc 66 3f de cb 71 3f
       0.70797795 0.92873293 0.9018084 0.944517
0002d0 c9 1d 78 3f 41 9d 72 3f 50 b1 59 3f 99 88 6c 3f
       0.9692045 0.947712 0.8503618 0.9239593
0002e0 83 c3 66 3f 6c 8e 62 3f 1b 77 70 3f 0e d1 64 3f
       0.9014208 0.8849857 0.9393174 0.8938149
0002f0 b3 1a 28 3f b6 71 54 3f ed 7c 72 3f 0a ba 66 3f
       0.6566574 0.8298601 0.9472187 0.90127623
000300 89 9d 49 3f 37 cf 3e 3f 1e 4f 7c 3f e1 0a 67 3f
       0.78756005 0.74534935 0.98558223 0.90250975
000310 6d d2 70 3f 30 17 71 3f 76 7b 65 3f 19 b7 66 3f
       0.94071084 0.94176006 0.8964151 0.90123135
000320 3d 3a 4a 3d 33 1d e1 bc 20 2b f8 bc c9 66 72 bc
       0.049371947 -0.027479744 -0.030294001 -0.014795014
000330 a2 e4 e3 3c e7 4e d9 bb cf f7 81 3c 76 0e 66 bc
       0.027818982 -0.0066317203 0.015865235 -0.014041534
000340 d2 88 a1 3c bb b6 82 3c a1 86 4f bc 16 68 01 3b
       0.019718561 0.015956273 -0.012666375 0.0019745878
000350 4f 43 83 bc d0 f4 65 3b 9f 46 df 3c 99 59 ef 3b
       -0.016023306 0.0035088547 0.027255354 0.007304382
000360 6c 54 b5 bd 46 54 4c 3d 9a de df 39 95 54 04 3d
       -0.08853993 0.049885057 0.00042699726 0.032307226
000370 85 8b 44 3b cb 54 45 bc 91 fa fa bc 69 2d 18 bb
       0.0029990387 -0.012044142 -0.030637057 -0.0023220426
000380 b0 83 7f 3c 5f b9 8d bc 39 ad a2 bb bc 64 49 bd
       0.015595362 -0.017300306 -0.0049644974 -0.049168333
000390 ca a1 c2 3d e4 fd 2d bb 4a ca 83 3c bd a7 0a bd
       0.09503515 -0.0026549036 0.01608767 -0.033851374
0003a0 9b 93 71 bc be 2e 85 3d 87 10 43 3d 5c ab 33 3d
       -0.014744665 0.06503056 0.047623184 0.043864593
0003b0 c6 cb fa 3c a9 95 f5 3c 46 68 dd 3c 1d d9 d7 bc
       0.030614745 0.02997859 0.02702726 -0.026348645
0003c0 44 2c 3b bc 82 ec 8f bb 6e 3e cb bc ef 38 b9 bb
       -0.011424128 -0.0043922076 -0.024810042 -0.005652539
0003d0 7e a3 63 3b 15 8e 26 3d 48 8c 5a bb 4a 4f 8c 3c
       0.00347349 0.040662844 -0.0033347774 0.017127652
0003e0 8b f7 ee 3c 37 3c 05 bd 21 50 16 bd 01 7d 5b 3d
       0.029170772 -0.03252813 -0.03669751 0.05358601
0003f0 42 c9 4d 3d 34 03 7e ba 3c c1 8f bd 7a a9 22 bd
       0.050240763 -0.00096898084 -0.070192784 -0.039712407

sequential_58/lstm_85/Read_2/ReadVariableOp f4 [400]
000000 81 3f 00 bd 8e 3c af 3d 8b b5 3c bd a2 b1 0a bd
       -0.031310562 0.08556472 -0.04607157 -0.03386081
000010 e7 f3 f1 bb 55 6d f6 3d 4d 82 e7 3e 74 1b 88 3e
       -0.0073838118 0.12032572 0.452166 0.26583445
000020 6b 78 fc 3c c1 c0 52 bd 1e 39 b8 3c 90 ef 52 3c
       0.030819139 -0.051453356 0.022488173 0.012874499
000030 3e 9c 57 3d 76 4a 05 bd a8 3e 21 3e d8 15 f6 3d
       0.05263924 -0.032541715 0.15746558 0.12015885
000040 01 78 00 bd c4 1b b6 3d 42 cd 99 3e dd ba b8 3d
       -0.031364445 0.088920146 0.30039412 0.09020016
000050 3b 92 4f 3d d6 ae 1a bd 13 a2 ee 3a 38 5c bb bd
       0.050676566 -0.037764393 0.0018206261 -0.09148449
000060 5f 8e 1d 3e 5c 82 e4 3d fe f1 d4 3d 70 5b 67 3b
       0.15386342 0.111576766 0.10397719 0.0035302304
000070 16 5e 26 3e ea 02 54 bd f9 b8 c5 3e ba 5e d0 3d
       0.16246828 -0.05176059 0.38617685 0.10174318
000080 98 ae 9e 3d 21 80 94 3c 31 a5 40 bc 43 89 c9 3d
       0.07748145 0.018127503 -0.011758135 0.09840634
000090 e0 11 33 3d 8f 50 74 3d 01 5b d8 3d 52 5f e6 3d
       0.04371822 0.05964714 0.105642326 0.1124865
0000a0 e5 58 63 bd fb 07 39 bd 69 ee 7c 3c b3 28 97 3d
       -0.0555047 -0.045173626 0.015437701 0.0738081
0000b0 3a 9d e8 3d 4f be 17 bc 9f 9e 88 3d f1 e3 63 3c
       0.113581136 -0.009261682 0.066708796 0.013909326
0000c0 06 12 3a 3e 8c d6 e0 3a af 97 4c 3d 97 1d d7 bc
       0.18170938 0.0017153784 0.049949344 -0.026259227
0000d0 2a 2f 8d 3c 12 f3 88 3b df 0c 69 3d bf 98 eb 3d
       0.017234404 0.004179367 0.05689704 0.115037434
0000e0 f9 50 02 3e 09 66 89 3d 6a 4c 3d 3c 14 71 1f 3d
       0.12726201 0.06708915 0.011553863 0.0389262
0000f0 9b 05 20 3d 81 f5 28 3d df 3c 02 bd 60 44 e9 bc
       0.039067846 0.041249756 -0.031796332 -0.028474987
000100 38 c1 87 3a 7a c3 9e 3d bc 26 af 3d 2c a2 a0 3d
       0.0010357266 0.07752128 0.0855231 0.07843432
000110 82 1a de 3c ed 87 93 3d 06 0b cf 3d 00 dd 97 3c
       0.02711225 0.0720366 0.101095244 0.018537998
000120 5a fd d5 3d 2a b1 cb bc de 09 aa 3d 8c 62 a8 3d
       0.104487136 -0.024864752 0.08302663 0.08221921
000130 5a 27 84 3d 9a ef b5 3d 81 c2 92 3c 32 9f 80 3e
       0.06452818 0.08883591 0.017915012 0.25121456
000140 73 61 ae 3e d7 78 2e bc 56 5b 08 3e 67 c4 fc 3b
       0.34058723 -0.010648928 0.13316092 0.0077138427
000150 8b b7 6e bd b9 04 ae bd f2 ad 4e 3d 6b 6b 04 3e
       -0.05828051 -0.084969945 0.050458856 0.12931602
000160 39 68 25 3d 50 70 15 3c 7a c3 38 3d 40 dd 5b 3e
       0.040382598 0.009121016 0.045108296 0.21471119
000170 9f 27 d9 3d a3 9d 38 3c 8a 67 ff 3d 1a 00 9e bd
       0.1060326 0.011268052 0.124709204 -0.07714863
000180 df 52 91 3d fa 41 dc 3e 78 25 d3 3d 02 19 c6 3d
       0.070958845 0.43019086 0.10309881 0.096727386
000190 68 01 79 3f 23 36 65 3f de b5 77 3f 25 90 7b 3f
       0.9726777 0.8953573 0.9676188 0.9826682
0001a0 6f 52 6e 3f 7a 1e 5e 3f a8 cd 6e 3f ab 0c 4b 3f
       0.93094534 0.86765254 0.93282557 0.79316205
0001b0 b6 88 67 3f d8 a2 7b 3f 86 72 68 3f 7f af 7b 3f
       0.9044298 0.98295355 0.9079975 0.9831466
0001c0 35 3e 83 3f 14 7f 80 3f 2b 72 80 3f f8 4f 80 3f
       1.0253359 1.0038781 1.0034841 1.0024405
0001d0 be a0 76 3f 45 dd 73 3f 6d f2 77 3f f0 67 62 3f
       0.96339023 0.95259506 0.9685429 0.88439846
0001e0 7f 9f 7a 3f 0a e0 7a 3f 80 86 41 3f 27 dd 65 3f
       0.9789962 0.97998106 0.75595856 0.89790577
0001f0 a0 98 80 3f 1f 09 82 3f a3 fa 83 3f aa eb 70 3f
       1.0046577 1.0159034 1.0310863 0.94109595
000200 d8 99 8b 3f fe 7c 5d 3f f8 88 7f 3f 80 cc 63 3f
       1.0906324 0.8651885 0.9981837 0.8898392
000210 31 8a 81 3f 4c 2d 70 3f 1a b6 77 3f 77 ca 62 3f
       1.0120298 0.9381912 0.9676224 0.88590187
000220 a9 b9 69 3f e3 98 69 3f ab 13 75 3f 1a ef 87 3f
       0.9129892 0.9124891 0.95733136 1.0619843
000230 c9 76 76 3f 95 fd 6c 3f d1 09 5c 3f d3 98 62 3f
       0.96275 0.92574435 0.8595248 0.8851444
000240 cc f5 76 3f 3c e6 70 3f 5c ea 77 3f ad 82 80 3f
       0.96468806 0.9410131 0.9684198 1.0039879
000250 13 3f 7b 3f 58 83 74 3f ec 9d 7f 3f 60 bb 68 3f
       0.9814312 0.95512915 0.99850345 0.9091091
000260 bc 4d 61 3f 7b c0 75 3f a4 28 72 3f 0d 1a 7a 3f
       0.8800924 0.95996827 0.9459326 0.97696
000270 9e ba 6e 3f 22 d5 6d 3f 43 7b 84 3f f3 1c 69 3f
       0.93253505 0.9290334 1.0350116 0.910598
000280 f4 ab 79 3f 9a 72 73 3f 0e f9 80 3f 04 29 7f 3f
       0.97528005 0.95096743 1.0076005 0.9967196
000290 07 04 74 3f 6f 8e 82 3f d2 39 85 3f 92 4c 7e 3f
       0.95318645 1.0199717 1.040827 0.9933559
0002a0 75 fe 80 3f a7 1d 82 3f 92 57 5a 3f 8e 21 83 3f
       1.0077654 1.0165299 0.8528987 1.0244615
0002b0 a4 21 8e 3f 35 1e 7d 3f 40 22 76 3f cd 1a 7c 3f
       1.1104016 0.9887422 0.9614601 0.98478395
0002c0 52 11 7a 3f 8f 05 83 3f e3 30 75 3f c6 57 5f 3f
       0.9768268 1.0236071 0.9577772 0.87243307
0002d0 85 9e 11 3f 05 cf 79 3f 26 a1 87 3f 0e 80 81 3f
       0.56882507 0.9758151 1.0596054 1.0117204
0002e0 06 cb 72 3f 37 30 7b 3f ca 93 7d 3f b3 a6 5a 3f
       0.9484104 0.98120445 0.99053633 0.8541061
0002f0 db bd 7a 3f bf 36 83 3f 80 cc 74 3f 48 ce 8d 3f
       0.97945946 1.0251082 0.9562454 1.1078577
000300 67 9a 7e 3f 47 83 76 3f 63 52 63 3f 26 89 78 3f
       0.9945435 0.96294063 0.8879759 0.9708427
000310 1a 0c 79 3f ae de 33 3f 6b 55 7a 3f 07 84 8b 3f
       0.9728409 0.7026166 0.9778659 1.0899667
000320 1d f2 a5 bd ce 62 80 bd f9 ea 5d bd 5d 22 af bd
       -0.0810282 -0.062688455 -0.054179166 -0.08551476
000330 63 83 a8 bd 70 cc 2d bd 1e 6f 15 bc d1 46 95 bc
       -0.08228185 -0.042431295 -0.009120731 -0.018222244
000340 30 b9 ad bb 7e 6e 54 bc 59 28 4c bd 40 12 4e 3d
       -0.005301617 -0.0129657965 -0.049843166 0.050310373
000350 9f 48 8c 3d 76 b7 48 bd a1 4e a7 3d 35 1a 38 3c
       0.06849789 -0.049003087 0.08169294 0.011236717
000360 55 00 b7 3d 2c 1a ba bc 70 25 96 bc 47 d4 44 bd
       0.0893561 -0.022717558 -0.018328398 -0.048054006
000370 aa f1 4c bd 02 a2 cb 3d 61 08 2e bd 6f 60 89 3b
       -0.050035156 0.0994301 -0.04248846 0.004192404
000380 ba ae 30 3d 2b cf 0a bc 2c b3 bc 3c 86 e0 b0 bd
       0.043135382 -0.008472244 0.023034655 -0.086365744
000390 fc ba a4 3c da 9a 99 3c 0a 42 cd 3b 71 d0 78 3c
       0.020108692 0.018750597 0.006263976 0.015186415
0003a0 69 32 6b 3c 43 96 99 3d e8 9b d3 3d bc 95 91 bd
       0.01435528 0.07499363 0.10332471 -0.07108638
0003b0 4b 25 85 3d 81 82 9d bc b6 8d 40 bd 5e d8 da bd
       0.06501254 -0.019227268 -0.047010146 -0.106858
0003c0 60 c0 43 3d db b9 95 ba b3 1c 70 3d 69 ad a2 3d
       0.047790885 -0.0011423187 0.05862112 0.079432316
0003d0 96 6e a6 bc 7b 44 a5 bd 2f 04 c3 3d 0f 38 ab 3d
       -0.020316403 -0.08069702 0.09522282 0.08360302
0003e0 93 80 f0 ba c4 23 b2 3d 2a f6 ba bd c1 00 a9 3d
       -0.0018348865 0.08698228 -0.09128983 0.08252097
0003f0 04 0d 2c 3b 92 4c 90 3d a2 59 dd bc 80 a7 6d bd
       0.0026252875 0.07045855 -0.02702028 -0.05802107

sequential_58/dense_116/BiasAdd/ReadVariableOp f4 [25]
000000 12 61 94 3d c6 d5 7b 3d aa d3 25 be 4a 9f 44 bd
       0.07245077 0.061483167 -0.16194025 -0.048003472
000010 54 ea 1d be ff 13 85 3d f4 fb ea 3c 52 7c 7b 3d
       -0.1542142 0.064979546 0.028684594 0.061397858
000020 31 94 87 bd e5 3f 19 3d 51 b7 a0 bd e4 0d dc 3c
       -0.06620062 0.03741445 -0.07847465 0.026862092
000030 e7 e2 97 bd ef bb 0f bd dc b5 4b 3d 60 89 5a 3d
       -0.07416325 -0.035091337 0.04973398 0.053353667
000040 a2 1f 2c 3d 43 f5 a3 3d 84 c0 27 bd 39 5d 95 bd
       0.042022355 0.08005764 -0.04095508 -0.072931714
000050 2e 78 81 3d d8 87 56 3d 36 af 1e be 06 64 a9 bd
       0.063217506 0.052375644 -0.15496525 -0.08271031
000060 ae f4 e4 3b
       0.006987176

sequential_58/dense_116/MatMul f4 [25, 100]
000000 28 e0 fb bd 44 fe a5 bd 35 be f5 3d c0 13 55 be
       -0.12298614 -0.08105138 0.1199917 -0.20808315
000010 11 77 1e 3e 1e 7d cf 3d 5e b1 cb bd 9f 78 b3 bb
       0.15475108 0.10131286 -0.099459395 -0.0054770256
000020 9c 0f 6c bd e2 4b d0 bb 8b b1 02 3d 90 7d bc bd
       -0.057632074 -0.006356702 0.0319076 -0.09203637
000030 09 95 ea 3c e0 d7 be 3d d4 ca 47 3e a5 69 82 be
       0.028635519 0.09318519 0.19510967 -0.25471225
000040 b1 72 24 be aa e1 83 bd 96 e1 4c be de 0c 3f be
       -0.16059376 -0.064395264 -0.20007929 -0.18657252
000050 44 84 7e be ca fc b0 3d d7 7a a7 3d 0f ee 5d be
       -0.24855143 0.08641966 0.08177727 -0.21672843
000060 65 9f d0 bc 93 a2 00 be 8e c6 b6 bd 4d f7 ff bd
       -0.02546663 -0.12562017 -0.0892459 -0.12498341
000070 df a5 54 be 20 2b ea 3d 06 a8 19 bc 3e fa 90 3d
       -0.207664 0.11434007 -0.009378439 0.0707898
000080 25 04 30 be 20 1d 75 3e 9c a7 4f 3e 0b 43 f8 bd
       -0.17189081 0.23936892 0.20278782 -0.121221624
000090 14 59 de 3d 21 1f c1 3d 73 9d 02 3e 5e f5 1d 3d
       0.10856834 0.094297655 0.12755375 0.03856408
0000a0 f1 0c a0 3e 21 e7 4a 3e d6 2d ab be ce 9b 61 be
       0.31259874 0.19814731 -0.33433408 -0.22032091
0000b0 bc a8 b9 bd f3 9d 68 be b2 1a 84 bd 69 1d 27 be
       -0.09065387 -0.22716503 -0.06450404 -0.16319813
0000c0 76 ef f1 3d f9 1c ae 3a f1 34 86 bd 95 2c d0 3d
       0.11813252 0.0013283781 -0.065530665 0.10164753
0000d0 f2 12 27 3c e6 f8 c5 3d 0d ee 4e be d0 5a f1 3c
       0.010197388 0.09666614 -0.20207997 0.029462248
0000e0 ff 57 54 3e 32 3c c1 3d 6b c3 ae 3d d5 81 5d be
       0.20736693 0.094353095 0.08533367 -0.21631558
0000f0 39 54 0a be 87 74 a7 3d 9d 2c 44 be bc 4c 78 3c
       -0.13508691 0.08176523 -0.19157644 0.015155014
000100 b5 a2 8b bd e7 3a 03 be 71 14 1d 3d 10 08 c4 bd
       -0.06818143 -0.12815438 0.038349573 -0.0957185
000110 0d f1 05 3e 46 60 85 3c 91 00 1d be 18 8c 95 3e
       0.13080235 0.016281258 -0.15332247 0.29208446
000120 40 51 d6 3d cc a3 49 bd e9 3a b8 3d 14 16 52 3e
       0.10464716 -0.049228474 0.08995611 0.20516235
000130 d8 33 03 bd ff 76 2c be 18 5d 21 3e 89 47 d2 3d
       -0.032031864 -0.16842268 0.15758169 0.102675505
000140 58 83 e4 bd 24 e2 18 3e ec 45 59 be 5e 83 1e 3d
       -0.11157864 0.14930016 -0.2121808 0.0386995
000150 a8 6e 34 3c da 24 f9 3d 5b b5 93 bd a0 bc 52 be
       0.011012711 0.12165232 -0.07212325 -0.20579767
000160 b1 56 cc bd bc 2b 33 3e e0 2a 8c 3d 3d fd f6 bd
       -0.099774726 0.17497152 0.06844115 -0.1206002
000170 f5 2d 95 be 68 c5 02 be 0d a5 ee 3d cc 14 07 be
       -0.29136625 -0.12770617 0.11652575 -0.13191527
000180 61 80 00 3e 31 05 80 3e 21 4f 17 be d1 e2 1a 3e
       0.12548973 0.2500396 -0.14776279 0.15125586
000190 a3 52 db bc 43 f6 12 be 92 b1 bb bc 86 6f c9 bc
       -0.026772803 -0.14351754 -0.02291182 -0.024589311
0001a0 36 de cc bd a0 c0 cf bb 22 56 57 3d 53 cf f2 bc
       -0.10003321 -0.0063401014 0.052572377 -0.029639876
0001b0 80 ea 2d be 57 4c 24 bd 5d e1 06 be 3a 1c 20 be
       -0.16983986 -0.040111866 -0.13171907 -0.15635768
0001c0 f5 d3 85 3d 0c 6b 2a 3e 7b b7 12 3e b1 d3 a6 3d
       0.06534568 0.16642398 0.14327805 0.08145846
0001d0 16 47 e4 3c 15 08 c9 3d 32 01 4f 3e 7e 27 5b bc
       0.027865928 0.09815995 0.202153 -0.013376115
0001e0 31 c6 cf 3b 5c f5 14 3e 82 ed 42 be b7 c8 6a 3e
       0.006340765 0.14546722 -0.19035915 0.22928129
0001f0 f5 ab 4c be 84 f2 5b 3c 8b 14 b3 bb bf 59 49 3c
       -0.19987471 0.013424519 -0.0054650954 0.012289464
000200 12 29 ad 3c e5 d6 4d be 16 10 6b bd ec d1 bc 3d
       0.021137748 -0.20101507 -0.057388388 0.09219727
000210 02 68 ff 3c 96 45 a4 3d fa c9 47 3e a7 68 c6 bc
       0.031177524 0.08021085 0.19510642 -0.024219824
000220 2f c3 4d 3e 7b 35 76 3d 63 a2 42 bd e5 7c 23 3e
       0.20093988 0.060109597 -0.047518145 0.15965612
000230 70 f7 00 be 6f d9 8f bd 32 bf 3f 3d 39 df d7 3d
       -0.1259439 -0.07023894 0.046813197 0.10540623
000240 6e 46 d3 bc c4 7c e5 bd cf 5d 9a 3d 86 86 0c be
       -0.02579042 -0.11205438 0.07537424 -0.13723192
000250 36 b0 22 3e 0d 5b 00 bd 24 7f 1b 3e 07 da 38 3e
       0.15887532 -0.031336833 0.15185219 0.18051921
000260 80 9d e5 3d bc e6 47 b8 76 3e 2f 3c 28 8f 2d be
       0.11211681 -4.7660185e-05 0.010696044 -0.16949141
000270 36 98 12 3d 3f cc 36 3e e1 ef 38 3e 76 89 66 3e
       0.03578969 0.17851351 0.18060257 0.22513375
000280 47 ca 43 3d f0 4f 3d 3e 3e cf b1 3d 6f 4f 33 be
       0.04780033 0.18487525 0.086821064 -0.1751077
000290 4a 2b 55 3d 4a 7d 05 be 49 40 59 be ef 76 d0 3c
       0.052043237 -0.13036075 -0.21215929 0.025447337
0002a0 ee 85 e6 bd d6 45 3e be df 6b 16 3e 20 f3 5d 3e
       -0.11256014 -0.18581328 0.14689587 0.21674776
0002b0 82 f3 d3 3d 2b 44 06 3e 39 f3 5c be bd ba 40 be
       0.1034918 0.13111942 -0.21577157 -0.18821235
0002c0 a8 8d 02 3e 65 f5 bb 3c 91 c8 f1 3d 27 62 9f bc
       0.1274935 0.022944162 0.11805833 -0.019455982
0002d0 82 19 1b be 2f 13 2c be b8 fc 12 3e ff f6 18 3e
       -0.15146449 -0.16804193 0.14354217 0.14937972
0002e0 b5 63 53 3d f3 17 51 bd a2 b3 f0 3d 92 f4 71 be
       0.05160876 -0.05104823 0.11753012 -0.23628452
0002f0 26 bb 4d be c5 a8 55 bd 66 83 e0 bd 5d e1 42 3e
       -0.20090923 -0.052162904 -0.10962562 0.19031282
000300 48 44 77 bd 73 1b 0a be 13 18 e1 3d 74 f1 2b be
       -0.060367852 -0.13487034 0.1099092 -0.16791326
000310 51 f0 5d be c2 53 6f be b5 b0 1e be af c6 3e be
       -0.21673705 -0.23371795 -0.15497096 -0.1863048
000320 71 9b 44 be d2 ee b1 3d 2c 80 90 bc cf 7d d6 bd
       -0.19199921 0.086881295 -0.017639242 -0.10473215
000330 2a 9d eb 3d 8c 43 39 3e e7 ad 81 3e 9b c3 6b 3d
       0.11504586 0.18092173 0.2532799 0.05755959
000340 9f a4 f9 3d 4a c5 f4 3d bd 11 54 bd e0 8c 7c 3c
       0.12189602 0.119516924 -0.05177473 0.015414447
000350 75 e4 60 be 1c cb 7d bd aa 8f 1c be 70 ba cb be
       -0.2196215 -0.06196128 -0.15289178 -0.39790678
000360 6e 12 eb 3d 01 94 95 bd d3 3b c0 3c c5 ae 8f bd
       0.114781246 -0.0730362 0.023466026 -0.070157565
000370 df 9a 01 3e 53 63 32 be d9 24 1c 3e 5a 32 18 3e
       0.12656735 -0.17420702 0.15248431 0.14862958
000380 12 ad 00 be d8 0b 84 bd 72 46 a8 3d 96 99 41 3d
       -0.12566021 -0.064475715 0.082165614 0.04726561
000390 b0 fb dd bd 1b cd 68 be 8c 01 80 bc b1 12 91 bc
       -0.10839021 -0.22734492 -0.015625738 -0.017709108
0003a0 b7 48 f0 bd 34 0a e1 bd 5d 0d b9 3d ed 4f 3e 3e
       -0.11732619 -0.10988274 0.09035752 0.18585177
0003b0 5c 33 37 3e a7 73 7a be ab 66 e2 3d a6 9b 32 be
       0.17890686 -0.2445818 0.110547386 -0.17442188
0003c0 a9 fc 94 3c 40 49 52 bb 25 80 6b bc da 47 cf bd
       0.018186884 -0.0032087117 -0.014373814 -0.101211265
0003d0 20 13 9f 3c 17 07 2c be 5d 3b df 3c af e4 03 be
       0.0194183 -0.1679958 0.027249986 -0.12880205
0003e0 0f 13 70 3e 6f 53 bb 3d f8 99 3a 3e d5 ec 94 bc
       0.2344477 0.09146773 0.18222797 -0.018179337
0003f0 05 09 4e bd 28 ed b0 3d 3b c3 40 bd e9 fb 7e be
       -0.05030157 0.08638984 -0.047061186 -0.24900784

sequential_58/dense_117/MatMul f4 [1, 25]
000000 92 de 9c 3e 27 c8 01 3e b6 8b f5 be 28 a0 88 be
       0.30638558 0.12674008 -0.47958153 -0.2668469
000010 1e f7 f7 be fc 1d 0c 3e a9 26 bd 3e fa 2e c5 3e
       -0.48430723 0.13683313 0.36943558 0.38512403
000020 7a e7 01 bf 97 2e 8d 3d 47 a5 b1 be 1e 65 4d 3e
       -0.5074383 0.06893652 -0.3469641 0.20058104
000030 f5 d8 54 be d4 1d d6 be 02 05 b5 3d 0a 5c d7 3e
       -0.20785888 -0.41819632 0.08838846 0.42062408
000040 3b e0 c5 3e 57 cd 8b 3e a5 42 7a be 0a 3c ea 3d
       0.38647637 0.273051 -0.24439485 0.11437233
000050 f9 14 6b 3e bc aa a2 3e f3 30 81 be 7f f1 80 3d
       0.22957219 0.31770885 -0.25232658 0.06296062
000060 a6 63 de 3e
       0.434354

sequential_58/lstm_85/Read_2/ReadVariableOp1 f4 [400]
000000 81 3f 00 bd 8e 3c af 3d 8b b5 3c bd a2 b1 0a bd
       -0.031310562 0.08556472 -0.04607157 -0.03386081
000010 e7 f3 f1 bb 55 6d f6 3d 4d 82 e7 3e 74 1b 88 3e
       -0.0073838118 0.12032572 0.452166 0.26583445
000020 6b 78 fc 3c c1 c0 52 bd 1e 39 b8 3c 90 ef 52 3c
       0.030819139 -0.051453356 0.022488173 0.012874499
000030 3e 9c 57 3d 76 4a 05 bd a8 3e 21 3e d8 15 f6 3d
       0.05263924 -0.032541715 0.15746558 0.12015885
000040 01 78 00 bd c4 1b b6 3d 42 cd 99 3e dd ba b8 3d
       -0.031364445 0.088920146 0.30039412 0.09020016
000050 3b 92 4f 3d d6 ae 1a bd 13 a2 ee 3a 38 5c bb bd
       0.050676566 -0.037764393 0.0018206261 -0.09148449
000060 5f 8e 1d 3e 5c 82 e4 3d fe f1 d4 3d 70 5b 67 3b
       0.15386342 0.111576766 0.10397719 0.0035302304
000070 16 5e 26 3e ea 02 54 bd f9 b8 c5 3e ba 5e d0 3d
       0.16246828 -0.05176059 0.38617685 0.10174318
000080 98 ae 9e 3d 21 80 94 3c 31 a5 40 bc 43 89 c9 3d
       0.07748145 0.018127503 -0.011758135 0.09840634
000090 e0 11 33 3d 8f 50 74 3d 01 5b d8 3d 52 5f e6 3d
       0.04371822 0.05964714 0.105642326 0.1124865
0000a0 e5 58 63 bd fb 07 39 bd 69 ee 7c 3c b3 28 97 3d
       -0.0555047 -0.045173626 0.015437701 0.0738081
0000b0 3a 9d e8 3d 4f be 17 bc 9f 9e 88 3d f1 e3 63 3c
       0.113581136 -0.009261682 0.066708796 0.013909326
0000c0 06 12 3a 3e 8c d6 e0 3a af 97 4c 3d 97 1d d7 bc
       0.18170938 0.0017153784 0.049949344 -0.026259227
0000d0 2a 2f 8d 3c 12 f3 88 3b df 0c 69 3d bf 98 eb 3d
       0.017234404 0.004179367 0.05689704 0.115037434
0000e0 f9 50 02 3e 09 66 89 3d 6a 4c 3d 3c 14 71 1f 3d
       0.12726201 0.06708915 0.011553863 0.0389262
0000f0 9b 05 20 3d 81 f5 28 3d df 3c 02 bd 60 44 e9 bc
       0.039067846 0.041249756 -0.031796332 -0.028474987
000100 38 c1 87 3a 7a c3 9e 3d bc 26 af 3d 2c a2 a0 3d
       0.0010357266 0.07752128 0.0855231 0.07843432
000110 82 1a de 3c ed 87 93 3d 06 0b cf 3d 00 dd 97 3c
       0.02711225 0.0720366 0.101095244 0.018537998
000120 5a fd d5 3d 2a b1 cb bc de 09 aa 3d 8c 62 a8 3d
       0.104487136 -0.024864752 0.08302663 0.08221921
000130 5a 27 84 3d 9a ef b5 3d 81 c2 92 3c 32 9f 80 3e
       0.06452818 0.08883591 0.017915012 0.25121456
000140 73 61 ae 3e d7 78 2e bc 56 5b 08 3e 67 c4 fc 3b
       0.34058723 -0.010648928 0.13316092 0.0077138427
000150 8b b7 6e bd b9 04 ae bd f2 ad 4e 3d 6b 6b 04 3e
       -0.05828051 -0.084969945 0.050458856 0.12931602
000160 39 68 25 3d 50 70 15 3c 7a c3 38 3d 40 dd 5b 3e
       0.040382598 0.009121016 0.045108296 0.21471119
000170 9f 27 d9 3d a3 9d 38 3c 8a 67 ff 3d 1a 00 9e bd
       0.1060326 0.011268052 0.124709204 -0.07714863
000180 df 52 91 3d fa 41 dc 3e 78 25 d3 3d 02 19 c6 3d
       0.070958845 0.43019086 0.10309881 0.096727386
000190 68 01 79 3f 23 36 65 3f de b5 77 3f 25 90 7b 3f
       0.9726777 0.8953573 0.9676188 0.9826682
0001a0 6f 52 6e 3f 7a 1e 5e 3f a8 cd 6e 3f ab 0c 4b 3f
       0.93094534 0.86765254 0.93282557 0.79316205
0001b0 b6 88 67 3f d8 a2 7b 3f 86 72 68 3f 7f af 7b 3f
       0.9044298 0.98295355 0.9079975 0.9831466
0001c0 35 3e 83 3f 14 7f 80 3f 2b 72 80 3f f8 4f 80 3f
       1.0253359 1.0038781 1.0034841 1.0024405
0001d0 be a0 76 3f 45 dd 73 3f 6d f2 77 3f f0 67 62 3f
       0.96339023 0.95259506 0.9685429 0.88439846
0001e0 7f 9f 7a 3f 0a e0 7a 3f 80 86 41 3f 27 dd 65 3f
       0.9789962 0.97998106 0.75595856 0.89790577
0001f0 a0 98 80 3f 1f 09 82 3f a3 fa 83 3f aa eb 70 3f
       1.0046577 1.0159034 1.0310863 0.94109595
000200 d8 99 8b 3f fe 7c 5d 3f f8 88 7f 3f 80 cc 63 3f
       1.0906324 0.8651885 0.9981837 0.8898392
000210 31 8a 81 3f 4c 2d 70 3f 1a b6 77 3f 77 ca 62 3f
       1.0120298 0.9381912 0.9676224 0.88590187
000220 a9 b9 69 3f e3 98 69 3f ab 13 75 3f 1a ef 87 3f
       0.9129892 0.9124891 0.95733136 1.0619843
000230 c9 76 76 3f 95 fd 6c 3f d1 09 5c 3f d3 98 62 3f
       0.96275 0.92574435 0.8595248 0.8851444
000240 cc f5 76 3f 3c e6 70 3f 5c ea 77 3f ad 82 80 3f
       0.96468806 0.9410131 0.9684198 1.0039879
000250 13 3f 7b 3f 58 83 74 3f ec 9d 7f 3f 60 bb 68 3f
       0.9814312 0.95512915 0.99850345 0.9091091
000260 bc 4d 61 3f 7b c0 75 3f a4 28 72 3f 0d 1a 7a 3f
       0.8800924 0.95996827 0.9459326 0.97696
000270 9e ba 6e 3f 22 d5 6d 3f 43 7b 84 3f f3 1c 69 3f
       0.93253505 0.9290334 1.0350116 0.910598
000280 f4 ab 79 3f 9a 72 73 3f 0e f9 80 3f 04 29 7f 3f
       0.97528005 0.95096743 1.0076005 0.9967196
000290 07 04 74 3f 6f 8e 82 3f d2 39 85 3f 92 4c 7e 3f
       0.95318645 1.0199717 1.040827 0.9933559
0002a0 75 fe 80 3f a7 1d 82 3f 92 57 5a 3f 8e 21 83 3f
       1.0077654 1.0165299 0.8528987 1.0244615
0002b0 a4 21 8e 3f 35 1e 7d 3f 40 22 76 3f cd 1a 7c 3f
       1.1104016 0.9887422 0.9614601 0.98478395
0002c0 52 11 7a 3f 8f 05 83 3f e3 30 75 3f c6 57 5f 3f
       0.9768268 1.0236071 0.9577772 0.87243307
0002d0 85 9e 11 3f 05 cf 79 3f 26 a1 87 3f 0e 80 81 3f
       0.56882507 0.9758151 1.0596054 1.0117204
0002e0 06 cb 72 3f 37 30 7b 3f ca 93 7d 3f b3 a6 5a 3f
       0.9484104 0.98120445 0.99053633 0.8541061
0002f0 db bd 7a 3f bf 36 83 3f 80 cc 74 3f 48 ce 8d 3f
       0.97945946 1.0251082 0.9562454 1.1078577
000300 67 9a 7e 3f 47 83 76 3f 63 52 63 3f 26 89 78 3f
       0.9945435 0.96294063 0.8879759 0.9708427
000310 1a 0c 79 3f ae de 33 3f 6b 55 7a 3f 07 84 8b 3f
       0.9728409 0.7026166 0.9778659 1.0899667
000320 1d f2 a5 bd ce 62 80 bd f9 ea 5d bd 5d 22 af bd
       -0.0810282 -0.062688455 -0.054179166 -0.08551476
000330 63 83 a8 bd 70 cc 2d bd 1e 6f 15 bc d1 46 95 bc
       -0.08228185 -0.042431295 -0.009120731 -0.018222244
000340 30 b9 ad bb 7e 6e 54 bc 59 28 4c bd 40 12 4e 3d
       -0.005301617 -0.0129657965 -0.049843166 0.050310373
000350 9f 48 8c 3d 76 b7 48 bd a1 4e a7 3d 35 1a 38 3c
       0.06849789 -0.049003087 0.08169294 0.011236717
000360 55 00 b7 3d 2c 1a ba bc 70 25 96 bc 47 d4 44 bd
       0.0893561 -0.022717558 -0.018328398 -0.048054006
000370 aa f1 4c bd 02 a2 cb 3d 61 08 2e bd 6f 60 89 3b
       -0.050035156 0.0994301 -0.04248846 0.004192404
000380 ba ae 30 3d 2b cf 0a bc 2c b3 bc 3c 86 e0 b0 bd
       0.043135382 -0.008472244 0.023034655 -0.086365744
000390 fc ba a4 3c da 9a 99 3c 0a 42 cd 3b 71 d0 78 3c
       0.020108692 0.018750597 0.006263976 0.015186415
0003a0 69 32 6b 3c 43 96 99 3d e8 9b d3 3d bc 95 91 bd
       0.01435528 0.07499363 0.10332471 -0.07108638
0003b0 4b 25 85 3d 81 82 9d bc b6 8d 40 bd 5e d8 da bd
       0.06501254 -0.019227268 -0.047010146 -0.106858
0003c0 60 c0 43 3d db b9 95 ba b3 1c 70 3d 69 ad a2 3d
       0.047790885 -0.0011423187 0.05862112 0.079432316
0003d0 96 6e a6 bc 7b 44 a5 bd 2f 04 c3 3d 0f 38 ab 3d
       -0.020316403 -0.08069702 0.09522282 0.08360302
0003e0 93 80 f0 ba c4 23 b2 3d 2a f6 ba bd c1 00 a9 3d
       -0.0018348865 0.08698228 -0.09128983 0.08252097
0003f0 04 0d 2c 3b 92 4c 90 3d a2 59 dd bc 80 a7 6d bd
       0.0026252875 0.07045855 -0.02702028 -0.05802107

while/MatMul_11 f4 [400, 100]
000000 bc 90 15 3e 29 f8 9f 3d 12 c7 6e 3c 57 0a 41 3e
       0.14605993 0.07811005 0.014573829 0.188516
000010 6d b8 25 3e 83 00 b1 3d d4 81 f3 3d dd 47 7f be
       0.16183634 0.08642676 0.11889997 -0.24929757
000020 98 16 bb 3e f1 56 23 3e 18 50 e7 3d 62 92 02 be
       0.36540675 0.15951134 0.112945735 -0.12751153
000030 41 3a b1 be 53 f5 ee 3d e3 7b 5f be 84 93 dd 3c
       -0.34614757 0.11667886 -0.21824603 0.02704788
000040 65 37 32 be 05 3c 5c 3e 9a 3f c9 3d ab 51 57 3e
       -0.17403944 0.2150727 0.09826584 0.21027248
000050 64 4a 3b 3e c6 60 3a be a1 eb 73 bd 5c 74 30 be
       0.18290097 -0.18200979 -0.059550885 -0.17231888
000060 76 1c 48 bd 76 d2 25 be fd 42 6e be fb f1 04 3e
       -0.048855267 -0.16193566 -0.23267742 0.12982933
000070 89 3b 73 bb 91 92 33 3e a7 ae 89 3d 72 4a 28 3e
       -0.0037114343 0.1753638 0.067227654 0.16434649
000080 9b 22 eb 3d bd 6a f9 bd e7 8e 26 be 90 e7 20 3e
       0.1148121 -0.12178562 -0.1626545 0.15713334
000090 87 1e 1c be 78 87 0a be dc e5 45 3e ae 0a 8b 3d
       -0.1524602 -0.1352824 0.19325966 0.06789146
0000a0 20 06 1d be de 70 11 be f6 dc d4 be f8 5c 1d be
       -0.15334368 -0.14203212 -0.4157483 -0.15367496
0000b0 37 80 3d 3e 26 99 2d 3e b1 43 34 be a5 5f 60 be
       0.18505941 0.16952953 -0.17603947 -0.21911485
0000c0 af 12 30 3d 68 5f 1b be b3 d2 9f bb f1 d0 21 be
       0.042986568 -0.15173113 -0.004877412 -0.15802361
0000d0 8e 9f 31 be 77 2b e2 bd f7 30 3d be 9f 98 4b 3e
       -0.17346022 -0.110434465 -0.1847571 0.19882439
0000e0 45 87 a8 3e 8c 40 4c bc 12 80 7c be 4b f4 65 bd
       0.32915702 -0.012466561 -0.2465823 -0.05614118
0000f0 1d 27 87 3e 61 26 be be 9c 03 57 bd d6 30 55 be
       0.2639703 -0.37138656 -0.052493677 -0.2081941
000100 e4 5f 83 be 6a 05 20 3c a6 19 30 3e f8 16 d4 3d
       -0.25659096 0.009766916 0.17197284 0.103559434
000110 f8 a1 8e 3e 96 e4 18 bd fc 3c 58 3e ef d6 15 be
       0.27857947 -0.03732737 0.21117014 -0.14632772
000120 c3 87 fb 3d cb 6b 29 be f9 21 69 be 69 62 1e 3e
       0.12281754 -0.16545026 -0.22766866 0.15467228
000130 c7 b5 ab 3c 5b f1 b8 bc 06 5f b7 bd f9 bc ec bc
       0.020960702 -0.022576025 -0.08953671 -0.028898703
000140 df e7 0f 3f 93 a6 92 3d f8 ae 5e 3e 2b d7 0d 3e
       0.5621318 0.07160678 0.21746433 0.13851611
000150 dd 11 c4 bd f2 44 ac 3d 9e 95 46 3e 0a e0 b7 bd
       -0.0957372 0.08411588 0.19393012 -0.08978279
000160 c4 f0 18 3c f5 d4 83 be c5 da 05 3e ca b1 80 3b
       0.009334747 -0.2574841 0.13071735 0.003927444
000170 9a f0 3d be d1 d1 fa bd cb 05 98 be 43 03 b1 be
       -0.18548813 -0.122470506 -0.2969192 -0.345728
000180 05 a5 52 3e d5 65 e1 3e fb dc 62 be 4d 17 2b 3e
       0.20570762 0.44023004 -0.2215461 0.16708107
000190 f6 23 59 3d b2 ac 9f 3e 96 07 a6 3e 3d 6d f4 3d
       0.05301281 0.31186444 0.32427663 0.11934898
0001a0 82 ec a9 3e 53 fa 02 3f 19 ca 0d bf ba c3 97 3e
       0.33188254 0.51163214 -0.553865 0.29641515
0001b0 cf 42 17 bd 94 74 d6 bc 4a ad be 3e 6d e6 0a be
       -0.036928948 -0.026178636 0.37241584 -0.13564463
0001c0 60 46 82 bc 91 eb 2a be ed 49 6d bc 68 59 1c 3e
       -0.015902698 -0.16691424 -0.014482957 0.15268481
0001d0 c3 51 84 be cc 05 a7 3e a7 48 04 3f e7 b9 63 3e
       -0.2584363 0.3262161 0.5167336 0.22238885
0001e0 bc 5e 1d 3e e1 0c 3f be 77 a9 b3 3e 00 78 12 be
       0.1536817 -0.18657257 0.3509023 -0.14303589
0001f0 4a 89 86 b9 1f 78 a8 bd 63 7e b1 bd 2d cd a4 3e
       -0.0002566076 -0.08226036 -0.086666845 0.32187787
000200 21 09 ba bb 3b 91 93 bd c2 47 0e bf 79 31 0c be
       -0.005677358 -0.07205435 -0.55578244 -0.13690747
000210 bf 54 1e 3d 3b 98 c3 be 9a 13 70 be a5 e6 87 3e
       0.03865504 -0.3820208 -0.23444977 0.26543155
000220 bc bb 7d be 0d ce 73 3e a4 34 ac 3e e7 fd a0 3d
       -0.24778646 0.23809071 0.33633912 0.07860928
000230 c3 f2 89 be 72 26 76 3d 62 f4 6c be 6e 63 8b be
       -0.26943025 0.060095258 -0.231401 -0.27224296
000240 ea b9 d1 bd 91 bc 81 3e 86 cf 3f be d4 19 66 be
       -0.102405384 0.25339177 -0.18731508 -0.2247079
000250 f8 85 92 be dc 52 3b be 79 69 a4 3d b0 c7 a1 be
       -0.28617835 -0.18293327 0.0802793 -0.31597662
000260 cd 94 93 3e fa 4e 33 be 64 b7 16 3e 61 f8 d7 3e
       0.28824463 -0.17510596 0.14718395 0.42181686
000270 6c 8e f5 3e 75 76 a1 be 6b 31 e7 3d d4 df be be
       0.47960222 -0.31535688 0.112887226 -0.37280142
000280 a8 cb 8f 3e 85 88 98 be b9 35 b1 3e 47 09 c3 3c
       0.28085065 -0.29791656 0.346113 0.023808135
000290 25 e5 42 be 77 3c 21 be c1 ba de 3d 3e 83 c0 bc
       -0.19032724 -0.15745722 0.10875464 -0.023500081
0002a0 a1 85 90 bb 2b b0 54 be 2e 7e d7 3e 7b e2 84 bd
       -0.004410461 -0.20770328 0.42088455 -0.0648851
0002b0 87 71 e5 bd 51 74 20 be 19 fa a7 bc 47 a5 8e 3e
       -0.11203294 -0.15669371 -0.020504998 0.27860472
0002c0 06 c4 28 be b8 20 02 be df 28 9e 3b f1 83 15 3f
       -0.16481027 -0.12707794 0.0048266496 0.5840445
0002d0 db da f3 3e e7 54 8a 3e 27 e3 24 3e 2a f2 57 3e
       0.4762791 0.270179 0.16102277 0.21088472
0002e0 19 6a 8a be 74 b5 55 bc f9 60 21 3e f3 e5 10 bf
       -0.2703407 -0.01304375 0.15759648 -0.56600875
0002f0 37 9c 26 3e 80 96 db 3c 5b ee 64 3e b5 31 6a 3e
       0.16270529 0.026805162 0.2235655 0.22870524
000300 90 74 19 be d8 a5 00 be 5d 27 2f bf 13 26 a8 3d
       -0.14985871 -0.12563264 -0.6841944 0.08210387
000310 0d a8 13 bc 29 cc 40 3d 2e ae c1 bd bb 84 83 3c
       -0.009012234 0.047069702 -0.0945705 0.016054502
000320 b0 43 16 bd f9 7b 59 bd 2c 04 85 3d 5a d3 90 bc
       -0.036685646 -0.053096745 0.06494936 -0.017678905
000330 f1 25 28 3d 4f ce b6 3d 74 5b 94 be 18 04 81 bd
       0.04105181 0.08926069 -0.28976023 -0.06299609
000340 04 0d 0d 3e 55 eb 90 3d a0 33 a4 3d df f3 f5 3c
       0.13774496 0.07076136 0.08017659 0.030023513
000350 ca d0 c6 bd 7f aa 65 3d 26 88 f7 3d bb c4 48 3d
       -0.09707792 0.0560708 0.12086515 0.04901574
000360 47 83 2b 3c 88 43 39 3e f2 52 3d 3e 07 92 4b 3e
       0.010468311 0.18092167 0.18488672 0.19879924
000370 e7 eb eb 3d 40 85 b0 3d d2 38 22 bd f2 ef 99 bd
       0.11519604 0.086191654 -0.03960497 -0.07516469
000380 70 27 eb 3c 44 0b ce bc a1 f0 b9 bd 1c f6 ce bb
       0.028705329 -0.025151856 -0.090790994 -0.0063159596
000390 e5 0e b7 bd cc 05 59 3d 3b da 35 be b4 5e 79 3d
       -0.08938388 0.052984044 -0.1775903 0.06088133
0003a0 67 56 fc 3d d1 70 25 be f6 bb a8 3c e2 08 d9 bc
       0.123211674 -0.16156317 0.02059744 -0.026493493
0003b0 f4 24 f4 bd 81 51 01 3d 0c ef 1e 3e 27 cf 20 be
       -0.11921111 0.03157187 0.15520877 -0.15704022
0003c0 f7 8f a8 3c cd 14 a3 bd e2 21 f4 bd 8f bb 97 3c
       0.02057646 -0.07962952 -0.11920525 0.018522052
0003d0 70 3d d6 bc b1 57 ab 3c 78 2c 12 3d de 3b 0a be
       -0.026152343 0.020915838 0.03568694 -0.134994
0003e0 3b 1e 03 be a2 d3 c9 3c d5 86 64 bd 29 3f 4d bd
       -0.12804501 0.024637047 -0.05579265 -0.050109062
0003f0 d2 b2 ab bb 81 8e a9 3c 5a 9d a3 3d bd 5e 14 3e
       -0.005239823 0.020697834 0.07988997 0.14489265

while/MatMul f4 [400, 2]
000000 37 06 0d be 15 0f 79 be 7f 0c bb bd 12 0d 99 3d
       -0.13771902 -0.2432216 -0.09133243 0.07473196
000010 7d 09 14 be ad 89 8c be 1e d3 ac bc 3c e3 2e be
       -0.14456744 -0.27448788 -0.021096762 -0.1707887
000020 dc 68 d1 bd be 4c eb 3d 9d e1 da bd db d6 a1 3c
       -0.102250785 0.11489247 -0.106875636 0.019755771
000030 7d bf ed 3e d8 2a 07 3f 05 10 80 3e 65 d6 5f 3e
       0.46435156 0.5279975 0.25012222 0.21859129
000040 a9 af af be cf a7 7a be af 47 c2 bd b9 65 d8 bd
       -0.34313706 -0.24478076 -0.09486329 -0.10566277
000050 70 7c 66 be 4f 8a ed bd 25 9e f5 be 3c 0b a9 be
       -0.22508407 -0.11598646 -0.47972217 -0.33016384
000060 0b 35 4b bd b0 52 d3 3c ef 45 c3 bd 6f ed 41 be
       -0.049611133 0.025796264 -0.09534823 -0.1893823
000070 88 c9 ed bb b8 e2 51 3d cf 29 11 3d 57 4f 08 3e
       -0.0072566904 0.051241606 0.035440262 0.13311516
000080 e6 56 76 3c 00 61 aa bd e8 57 58 bc 6e bf 06 bd
       0.015035367 -0.083192825 -0.013204552 -0.032897405
000090 65 10 c2 3e 1b 6c 53 3e 35 00 0e bf ad 69 ef be
       0.37903133 0.20646708 -0.55469066 -0.46760312
0000a0 83 ec 4d 3d 51 d9 f9 bc 58 62 7d bd ec d4 66 3d
       0.050274383 -0.030499132 -0.061861366 0.056355402
0000b0 0c 01 99 be 7b 08 84 be 69 64 b7 bd e5 5d 1f 3c
       -0.2988361 -0.2578772 -0.089546986 0.009726976
0000c0 25 18 c7 bd b2 2e b5 bc 7c 6c f7 ba 8a e2 4a 3d
       -0.09721402 -0.022116993 -0.0018876935 0.04953245
0000d0 92 d1 c0 3d 89 d1 dd bb 0b f8 52 3d 0e 0e 87 bd
       0.09414972 -0.0067693633 0.051506083 -0.065944776
0000e0 26 b5 78 bd 22 38 1e 3d d7 10 76 bd 07 0e ea bc
       -0.06071963 0.03862775 -0.060074653 -0.028571142
0000f0 0f 5a e1 3e 3a 0d 2e 3e 7b 5f e5 bd fb 56 07 3d
       0.44014022 0.16997233 -0.11199852 0.033041935
000100 7c dd 35 bd 4d e0 e5 bd 85 27 ad be 9b c1 50 be
       -0.044400677 -0.112244226 -0.33819214 -0.20386355
000110 97 ef 05 3d 0d 21 fa 3d 2f 58 73 be c9 64 fb bd
       0.032699194 0.12213335 -0.23764108 -0.122750826
000120 86 23 b9 be db 1f 61 be dc 96 48 be 03 41 f5 bd
       -0.36159915 -0.21984808 -0.19588798 -0.119752906
000130 5b 28 c1 3d 11 8b b2 3c ba dd fd 3d 71 62 c5 bd
       0.09431525 0.021794828 0.123958066 -0.09637917
000140 db e0 88 be 0a b0 c5 be f2 86 a6 bc 03 67 81 3d
       -0.2673405 -0.3861087 -0.020328019 0.06318476
000150 6e 5a 0a be ff 64 1e be 19 b9 f8 3c 1b 28 ff bd
       -0.13511059 -0.15468214 0.030361699 -0.124588214
000160 9d 07 d5 bc 43 26 ce bc 67 b3 60 be 73 6d 08 be
       -0.026004607 -0.025164729 -0.21943437 -0.13323002
000170 48 e2 90 be d4 be 81 be 4d cf b8 bd 11 37 32 be
       -0.2829764 -0.25340903 -0.090239145 -0.17403819
000180 83 e9 37 3d bb 4d 96 3d b3 a9 48 bd f8 24 92 be
       0.04490043 0.07339045 -0.048989963 -0.2854383
000190 7f 58 15 be 69 9c 1f be 7e 72 82 be 48 01 d1 be
       -0.1458454 -0.1558701 -0.25477976 -0.4082129
0001a0 d2 9c 47 bb fa cf 22 3d 27 7f 2c be 92 dd c6 be
       -0.0030458462 0.039749123 -0.1684538 -0.3884092
0001b0 1f cd 9c bd f1 b6 4d be 9d 14 29 3e a5 6a 65 3e
       -0.07656311 -0.20089318 0.1651177 0.22403963
0001c0 03 49 2b 3e e9 b9 25 3e d4 cb f8 3d 1a c0 62 3e
       0.1672707 0.161842 0.12148252 0.22143593
0001d0 3e 20 06 be 01 4a 0e be b2 5c 91 bb 9a f3 dd bc
       -0.13098237 -0.13895418 -0.004436099 -0.027093697
0001e0 97 ac 9d 3c f5 e3 45 3e ba 2e ea 3c d8 f8 69 3e
       0.019247336 0.1932524 0.028586734 0.22848833
0001f0 9b 50 b4 bd e1 0a 57 3c 3b b3 fd bb 80 01 da 37
       -0.08804437 0.013125152 -0.007742313 2.5988324e-05
000200 04 3f 51 bd 8f 7e 21 be 08 2e 20 be ed a6 22 be
       -0.051085487 -0.15770935 -0.1564256 -0.1588399
000210 f0 50 e2 bd a7 8c 9a bb 40 6f e9 bd 81 5a 26 3d
       -0.11050594 -0.004716474 -0.113981724 0.040613655
000220 76 3b 13 3d e3 3a a2 bd 13 25 96 bb 02 fe b9 3d
       0.03594538 -0.07921388 -0.0045820563 0.09081651
000230 dd 43 91 be 68 8b c4 be 21 2a 5d 3e 0e b4 0c 3d
       -0.28372088 -0.3838761 0.21598102 0.0343514
000240 27 66 95 3d ab f5 f3 3d da 24 09 3e 37 4a ec bd
       0.07294875 0.11912092 0.13392964 -0.11537593
000250 6e 5a a5 bd d4 78 49 be 9f e2 ab 3d 5e 59 cd 3c
       -0.08073889 -0.19674999 0.08392834 0.025067028
000260 37 ec 87 be 43 94 72 be 86 0b 2f be 85 0e 01 be
       -0.26547405 -0.2368937 -0.1709424 -0.12603195
000270 7d 29 82 be a5 f5 e1 bd fc 9f 6f 3e d2 4d ad 3e
       -0.25422278 -0.11033181 0.23400873 0.33848435
000280 ac d5 ae 3e 70 9a 3b 3e 09 8b a5 bd 12 b8 83 be
       0.34147394 0.18320632 -0.080831595 -0.25726372
000290 db 52 ed 3d d5 3f 18 3e 20 69 1b 3e b2 3e 23 3e
       0.11588069 0.148681 0.15176821 0.15941885
0002a0 10 2b dc be a8 0e cd be 16 59 96 be 62 4f 9c be
       -0.43001604 -0.40050244 -0.29364842 -0.30529314
0002b0 2f d7 1c be 2b 87 40 bd 65 72 ee bc 53 d0 30 3e
       -0.15316461 -0.047003906 -0.029107282 0.1726697
0002c0 59 33 46 be 91 91 84 be 93 f2 b0 3d c6 ca 14 be
       -0.19355525 -0.25892308 0.08640017 -0.14530477
0002d0 71 5f b0 be e1 2a bf be e2 ed 22 3e 0d d2 92 3d
       -0.34447816 -0.37337402 0.15911058 0.0716897
0002e0 ca b3 38 bd 9b ef 82 3c 7e e7 0b bf 32 4d fa be
       -0.045093335 0.015983393 -0.54650104 -0.4888702
0002f0 51 d5 6e 3e 82 0c 71 3e b3 fe 72 3d b3 27 dc bd
       0.23323561 0.23539928 0.05932493 -0.107497595
000300 5f d5 00 3e 70 8c 39 3d 38 fd c0 3e 5f 96 0c 3f
       0.12581395 0.045299947 0.3769319 0.5491695
000310 8d b1 ef 3d 81 8f 66 3c 77 b7 dc bc e3 11 96 bd
       0.11703787 0.0140723 -0.026942952 -0.0732763
000320 e7 ee 06 3e a5 7f 1e 3e 36 97 97 bd ca d7 20 3e
       0.13177072 0.1547838 -0.07401888 0.15707317
000330 06 2f 7b 3d 8d 91 5f bc cd 9f 0a 3e bf d6 63 bb
       0.061324142 -0.013645542 0.13537522 -0.003476545
000340 29 e4 90 3e 76 ee 4a 3e 7c 46 0c 3d ac 0e 89 3e
       0.28299072 0.19817528 0.034246907 0.26769006
000350 11 df f1 3e 86 76 10 3f 6b 67 0c be a3 b4 22 3d
       0.472405 0.5643085 -0.13711326 0.03972305
000360 b7 49 ee bd a9 a3 a2 bd a9 38 89 be 3d 78 bb be
       -0.11635154 -0.07941372 -0.2680104 -0.36615172
000370 8e d2 f6 3d 9d 6e 5b 3e e6 f8 32 3d e1 65 05 bd
       0.12051879 0.21428914 0.0436944 -0.032567862
000380 e7 26 8f be 1f d5 aa be 02 32 98 be b1 b1 88 be
       -0.27959368 -0.33365723 -0.29725653 -0.26698068
000390 a4 a4 84 3e a9 3d d6 3e 35 66 08 be 6a fc 42 be
       0.2590686 0.41843918 -0.13320239 -0.19041601
0003a0 7a 65 07 3d 93 c2 36 3d c3 20 cd be 55 de 95 be
       0.03305576 0.044619154 -0.40064058 -0.29271188
0003b0 0e 23 48 be 58 8f 27 3e 03 9b 44 be 7e 37 ad be
       -0.19544622 0.16363275 -0.19199757 -0.338314
0003c0 04 8c 3c be 74 15 ad be b8 11 47 3c 40 f8 37 3d
       -0.18412787 -0.3380543 0.012150221 0.044914484
0003d0 d5 e4 54 be c3 ea 78 be 94 18 0f be 2e 7a 64 be
       -0.20790417 -0.24308304 -0.1397422 -0.22312233
0003e0 ff 6f 59 3d 90 ea 8c 3d 1f 2a 4a be 7b 5a ae be
       0.053085323 0.06880677 -0.1974263 -0.34053406
0003f0 5c ba 38 be 74 1b 4f be 52 c2 07 3e aa 44 56 3e
       -0.1803984 -0.20225316 0.13257721 0.20924631

sequential_58/lstm_86/Read_2/ReadVariableOp1 f4 [400]
000000 14 41 ab 3d 8e 36 1f bd 25 02 06 bc 62 53 90 bd
       0.08362022 -0.038870387 -0.008179222 -0.07047154
000010 c9 97 77 bd b4 4f 15 bc c8 74 48 bc a7 dd 26 bd
       -0.060447488 -0.009113241 -0.012234874 -0.040738728
000020 85 5f 04 3e bf ce f3 bd 91 46 c5 bd 3d 0b 11 bd
       0.12927063 -0.11904668 -0.096326 -0.03541111
000030 f2 5d b0 3a b8 6b f1 bc 3c 05 18 bd da bc 5e 3e
       0.0013455732 -0.02947031 -0.037114367 0.21751729
000040 58 05 6e 3c 04 80 97 bc 1a 42 c8 bc d6 3d 8e 3c
       0.014527641 -0.01849366 -0.024445582 0.01736347
000050 5c b1 00 3e 1e 71 e9 3b 5e 52 be be 83 81 a0 bd
       0.12567657 0.0071240803 -0.37172216 -0.078372024
000060 8e 3b 65 bd 84 d5 6c bd 2e 88 f0 bc 0d 16 b3 bc
       -0.055965 -0.057820812 -0.02936181 -0.0218611
000070 73 d8 63 3d 29 e4 dc bd 16 14 90 bd 6b 5d cc 3c
       0.055626344 -0.107857056 -0.07035081 0.024946889
000080 72 73 aa 3d f5 e3 7e bc 3a 36 46 bc 6d ce 0a be
       0.08322801 -0.015557279 -0.01209789 -0.13555308
000090 dd f8 ce 3c 2a 85 59 bb 83 66 25 bd 4e 01 ac bc
       0.025265152 -0.0033190944 -0.040380966 -0.020996716
0000a0 a9 ee f8 3c 1d 31 60 3c 52 ac 0c bd 9e f6 94 3c
       0.03038724 0.0136835845 -0.034344025 0.018184002
0000b0 9b 9d 9a bd 60 30 c7 bd 00 72 e6 bd 36 dd 0b be
       -0.07549592 -0.09726024 -0.112522125 -0.13658604
0000c0 47 e5 48 bc 9d db 74 ba a2 c0 f9 bd 99 5e e6 bc
       -0.012261695 -0.0009340586 -0.12194945 -0.02812128
0000d0 8d 4d 57 3d e7 9d 35 bd 95 96 ca bc be 07 4f 3c
       0.052564193 -0.04434004 -0.024730006 0.012636123
0000e0 df d8 af 3c 06 fa d9 3b ad 83 2e bd 32 e1 60 bd
       0.021465717 0.0066521196 -0.042606045 -0.054902263
0000f0 e2 ca 84 3c 5e c4 fb 3c 0d 29 1f bd af 5f b2 3b
       0.016210023 0.030733284 -0.03885751 0.0054435353
000100 dc 54 9d bd cf e1 b0 bc fa 2c ab 3d 09 81 a8 bc
       -0.07682201 -0.021592049 0.08358188 -0.020569341
000110 d4 1e ec bc 87 05 52 bd 19 0d d9 3b 9a 88 e7 3d
       -0.028823294 -0.051274803 0.006623876 0.113053516
000120 38 86 89 bd ed bb 4e bd 0a fc 61 3c d9 dc 84 3c
       -0.06715053 -0.05047219 0.013793001 0.01621859
000130 11 21 69 3d 88 97 22 3c 80 53 93 3c e5 34 32 bd
       0.0569163 0.009923823 0.017984152 -0.043507475
000140 9e b6 84 bd aa 79 da bc d2 0a 69 bc 7d 95 95 3c
       -0.06480144 -0.026669342 -0.014223771 0.018259758
000150 d8 ab 6e bd 0f 32 0b 3e 0a ee 7d bd dd 89 22 3c
       -0.05826935 0.13593315 -0.06199459 0.0099205645
000160 97 62 a1 bc 08 35 93 bc 3c 51 71 bd 57 e1 15 3d
       -0.019700332 -0.017969623 -0.05891536 0.036591854
000170 0c 10 60 bd c3 c7 b4 bd fa 24 10 bd 22 4d ff 3b
       -0.054702803 -0.08827164 -0.035191514 0.0077911774
000180 e7 47 9f bc 9b b7 fa 3d a5 c2 d5 bc 15 86 e2 bd
       -0.019443465 0.12242051 -0.02609379 -0.1106073
000190 2c e8 46 3f 08 a5 72 3f e8 d1 6a 3f a9 83 3e 3f
       0.77698016 0.9478307 0.9172654 0.7441965
0001a0 3e 1f 4f 3f 83 ce 75 3f 61 ea 68 3f 61 aa 58 3f
       0.80907047 0.96018237 0.90982634 0.8463498
0001b0 58 2f 44 3f 8f b1 3a 3f 86 af 4d 3f a0 08 6e 3f
       0.7663474 0.7292718 0.8034595 0.9298191
0001c0 37 81 71 3f 68 cd 69 3f 89 66 6f 3f fb b3 1f 3f
       0.9433779 0.9132905 0.9351583 0.62384003
0001d0 2e 00 70 3f cd d0 6f 3f de c4 75 3f e2 cd 6e 3f
       0.93750274 0.9367798 0.9600352 0.932829
0001e0 e4 77 24 3f 5a 85 6f 3f 10 1a 24 3f 6e e2 2c 3f
       0.6424544 0.93562853 0.6410227 0.67533004
0001f0 dd cc 5e 3f c7 ff 6d 3f ae f0 76 3f 8b a3 75 3f
       0.87031347 0.9296841 0.96461 0.9595267
000200 f5 01 64 3f 6c b5 5c 3f b6 ab 66 3f 9f 0d 6c 3f
       0.89065486 0.8621433 0.9010576 0.92208284
000210 29 b4 47 3f 4b 3e 7b 3f d8 8a 6b 3f 60 3d 47 3f
       0.7800928 0.98141927 0.92008734 0.77828026
000220 9d 84 72 3f 9f 40 57 3f ef 17 72 3f 52 04 71 3f
       0.947336 0.8408298 0.9456777 0.9414722
000230 8d 3c 56 3f 01 21 3d 3f 24 21 49 3f be f9 75 3f
       0.83686143 0.73878485 0.78566194 0.960842
000240 3c 2e 75 3f 3b af 4d 3f 58 9f 73 3f 34 87 6c 3f
       0.95773673 0.80345505 0.95165014 0.92393804
000250 13 44 6a 3f 58 c7 62 3f c3 fa 51 3f 95 18 71 3f
       0.91510123 0.88585424 0.82023257 0.94178134
000260 9c bd 6f 3f ec d0 2d 3f 4b ae 6a 3f ed 07 5b 3f
       0.93648696 0.67896914 0.916722 0.8555897
000270 a7 23 74 3f e5 cf 68 3f 28 99 71 3f 70 2d 78 3f
       0.953669 0.9094222 0.9437432 0.9694433
000280 ae 3c 7c 3f a0 3b 56 3f 26 c9 70 3f d8 0e 5f 3f
       0.9853009 0.8368473 0.9405693 0.87132025
000290 1b d6 49 3f de 92 58 3f 53 8d 47 3f 1c da 62 3f
       0.78842324 0.845991 0.7795002 0.8861406
0002a0 e3 6b 72 3f 59 a6 4c 3f 13 f9 69 3f b7 4b 28 3f
       0.9469587 0.79941326 0.9139568 0.6574053
0002b0 01 8d 71 3f c8 35 73 3f 94 80 70 3f 21 0a 6f 3f
       0.9435578 0.9500394 0.93946195 0.9337483
0002c0 0b 3e 35 3f 71 c1 6d 3f ea dc 66 3f de cb 71 3f
       0.70797795 0.92873293 0.9018084 0.944517
0002d0 c9 1d 78 3f 41 9d 72 3f 50 b1 59 3f 99 88 6c 3f
       0.9692045 0.947712 0.8503618 0.9239593
0002e0 83 c3 66 3f 6c 8e 62 3f 1b 77 70 3f 0e d1 64 3f
       0.9014208 0.8849857 0.9393174 0.8938149
0002f0 b3 1a 28 3f b6 71 54 3f ed 7c 72 3f 0a ba 66 3f
       0.6566574 0.8298601 0.9472187 0.90127623
000300 89 9d 49 3f 37 cf 3e 3f 1e 4f 7c 3f e1 0a 67 3f
       0.78756005 0.74534935 0.98558223 0.90250975
000310 6d d2 70 3f 30 17 71 3f 76 7b 65 3f 19 b7 66 3f
       0.94071084 0.94176006 0.8964151 0.90123135
000320 3d 3a 4a 3d 33 1d e1 bc 20 2b f8 bc c9 66 72 bc
       0.049371947 -0.027479744 -0.030294001 -0.014795014
000330 a2 e4 e3 3c e7 4e d9 bb cf f7 81 3c 76 0e 66 bc
       0.027818982 -0.0066317203 0.015865235 -0.014041534
000340 d2 88 a1 3c bb b6 82 3c a1 86 4f bc 16 68 01 3b
       0.019718561 0.015956273 -0.012666375 0.0019745878
000350 4f 43 83 bc d0 f4 65 3b 9f 46 df 3c 99 59 ef 3b
       -0.016023306 0.0035088547 0.027255354 0.007304382
000360 6c 54 b5 bd 46 54 4c 3d 9a de df 39 95 54 04 3d
       -0.08853993 0.049885057 0.00042699726 0.032307226
000370 85 8b 44 3b cb 54 45 bc 91 fa fa bc 69 2d 18 bb
       0.0029990387 -0.012044142 -0.030637057 -0.0023220426
000380 b0 83 7f 3c 5f b9 8d bc 39 ad a2 bb bc 64 49 bd
       0.015595362 -0.017300306 -0.0049644974 -0.049168333
000390 ca a1 c2 3d e4 fd 2d bb 4a ca 83 3c bd a7 0a bd
       0.09503515 -0.0026549036 0.01608767 -0.033851374
0003a0 9b 93 71 bc be 2e 85 3d 87 10 43 3d 5c ab 33 3d
       -0.014744665 0.06503056 0.047623184 0.043864593
0003b0 c6 cb fa 3c a9 95 f5 3c 46 68 dd 3c 1d d9 d7 bc
       0.030614745 0.02997859 0.02702726 -0.026348645
0003c0 44 2c 3b bc 82 ec 8f bb 6e 3e cb bc ef 38 b9 bb
       -0.011424128 -0.0043922076 -0.024810042 -0.005652539
0003d0 7e a3 63 3b 15 8e 26 3d 48 8c 5a bb 4a 4f 8c 3c
       0.00347349 0.040662844 -0.0033347774 0.017127652
0003e0 8b f7 ee 3c 37 3c 05 bd 21 50 16 bd 01 7d 5b 3d
       0.029170772 -0.03252813 -0.03669751 0.05358601
0003f0 42 c9 4d 3d 34 03 7e ba 3c c1 8f bd 7a a9 22 bd
       0.050240763 -0.00096898084 -0.070192784 -0.039712407
