coffeetracker/assets/volume_forecast_model_6m.tflite (tflite, 146404 bytes, 10 tensors)

sequential_11/lstm_25/Read_2/ReadVariableOp f4 [200]
0.004838995 0.27418768 -0.00858306 0.022762453 0.011364018 0.016611686 0.010349069 -0.0137067055
0.01102963 -0.011714831 0.017060338 -0.0013267559 0.0044597983 0.0151428385 0.024818046 0.0027393773
0.004635024 -0.012057326 -0.014065742 0.057409883 -0.01897248 -0.026742844 -0.050783634 -0.029023604
0.014876522 0.032982938 -0.035366688 0.0073392806 0.019086596 0.0023377172 -0.047550064 0.01236
0.009270218 0.024848737 0.006825314 0.091624424 0.057833124 -0.0010921002 -0.044422463 -0.011423567
-0.0006411431 -0.022170536 0.0020462174 -0.015630368 -0.01807292 -0.0006595919 -0.001987418 0.012533257
-0.0016260779 -0.0028447267 1.0013723 1.1609695 0.99287665 1.0405855 1.0092906 1.014781
1.0088505 0.99776495 1.022122 0.9272259 1.014507 0.99741226 1.0006386 1.0035805
1.0190895 0.9751002 1.0040998 0.98283213 0.97620887 1.0222958 0.9613048 0.96878564
0.9586914 0.9677377 1.0122303 1.0459768 0.971868 0.9433377 1.0152152 0.98839754
0.9627631 1.0217892 1.0028863 1.0228443 1.022637 1.1083797 1.0250078 0.940574
0.94603825 0.9812018 1.0027038 0.98353344 1.0011147 0.9820121 0.9949819 1.0022055
1.0015055 0.9664555 0.97362006 0.981153 -0.0169766 0.021100253 0.0098466575 0.033103373
0.01818903 -0.0032320162 0.0041714995 -0.013756185 0.015854554 -0.019703731 -0.0021311163 -0.0153665785
0.011039551 -0.035583302 0.0012819979 0.014429076 0.0019254087 0.027310643 -0.007497382 -0.013297309
-0.0025168797 -0.02728029 -0.0031213514 0.019185478 0.008649747 0.051615156 0.0064053256 0.018674893
0.009015786 0.015255077 0.0014922221 -0.013899234 -0.0072618346 -0.011453638 -0.037394274 0.0160405
-0.018460797 0.018448088 -0.002523789 0.02549532 -0.015262671 -0.014668727 -0.004219238 0.011638487
0.03399494 0.009060188 0.008934387 0.03802693 0.011716414 -0.024659496 0.00055493106 0.21475573
-0.007247611 0.02467032 0.011424563 0.011335048 0.009587107 -0.012967387 0.010043263 -0.016034443
0.012230649 3.171724e-05 0.003811375 0.011459086 0.017659573 0.0019674539 0.0010241072 -0.018568924
-0.013236387 0.017759304 -0.020223439 -0.02945793 -0.051581148 -0.029000867 0.010103617 0.022193236
-0.035200488 -0.00094458944 0.011558646 0.0014942029 -0.051811405 0.0133274775 0.004482806 0.022981107
0.0071995375 0.052633896 0.02969676 0.00064296764 -0.04585341 -0.016061656 -0.0003071855 -0.022792531
-0.0017240649 -0.016588293 -0.018822227 -0.0041770404 -0.0012224986 0.0105475355 0.0018172811 -0.006507983
00000000: 6f90 9e3b 5462 8c3e f69f 0cbc 5378 ba3c
00000010: 2530 3a3c 3b15 883c 248f 293c 1792 60bc
00000020: 9fb5 343c 90ef 3fbc 1fc2 8b3c 8ae6 adba
00000030: 8023 923b ab19 783c 374f cb3c 2087 333b
00000040: 66e1 973b 178c 45bc ff73 66bc a026 6b3d
00000050: 2d6c 9bbc cf13 dbbc 8002 50bd e9c2 edbc
00000060: a8bc 733c 1e19 073d a9dc 10bd 597e f03b
00000070: 7e5b 9c3c 6334 193b dbc3 42bd 9981 4a3c
00000080: 1de2 173c 948f cb3c e2a6 df3b 96a5 bb3d
00000090: 6de2 6c3d cd24 8fba 54f4 35bd ea29 3bbc
000000a0: 6312 28ba fc9e b5bc d519 063b 420b 80bc
000000b0: a90d 94bc 77e8 2cba 573f 02bb 4a58 4d3c
000000c0: 1f22 d5ba 986e 3abb f82c 803f a69a 943f
000000d0: 2a2d 7e3f e831 853f 6f30 813f 58e4 813f
000000e0: 0322 813f 866d 7f3f e5d4 823f ad5e 6d3f
000000f0: 5edb 813f 6956 7f3f ed14 803f 5375 803f
00000100: 8671 823f 2ba0 793f 5886 803f e39a 7b3f
00000110: d3e8 793f 97da 823f 1218 763f 5602 783f
00000120: cd6c 753f a8bd 773f c390 813f 91e2 853f
00000130: 57cc 783f 947e 713f 92f2 813f 9f07 7d3f
00000140: a477 763f fdc9 823f 945e 803f 90ec 823f
00000150: c5e5 823f 63df 8d3f 7533 833f 75c9 703f
00000160: 902f 723f 0b30 7b3f 9958 803f d9c8 7b3f
00000170: 8724 803f 2565 7b3f 22b7 7e3f 4548 803f
00000180: 5531 803f a169 773f 2a3f 793f d82c 7b3f
00000190: 8312 8bbc 70da ac3c e053 213c 6797 073d
000001a0: 2901 953c 3cd0 53bb 13b1 883b 9f61 61bc
000001b0: 69e1 813c b869 a1bc 33aa 0bbb 1ac4 7bbc
000001c0: 3cdf 343c ccbf 11bd b608 a83a ee67 6c3c
000001d0: ff5d fc3a 92ba df3c 99ac f5bb f5dc 59bc
000001e0: 3cf2 24bb ea7a dfbc 968f 4cbb dd2a 9d3c
000001f0: abb7 0d3c 6a6a 533d c4e3 d13b 17fc 983c
00000200: f3b6 133c 6ef0 793c aa96 c33a 9db9 63bc
00000210: aff4 edbb 0aa8 3bbc bd2a 19bd 5e67 833c
00000220: 193b 97bc 7220 973c 2766 25bb 90db d03c
00000230: 4810 7abc 1a55 70bc 8941 8abb 5aaf 3e3c
00000240: 473e 0b3d 2f71 143c 8961 123c 20c2 1b3d
00000250: 34f6 3f3c b602 cabc cb78 113a ede8 5b3e
00000260: 5e7d edbb 6919 ca3c 172e 3b3c a3b6 393c
00000270: 3e13 1d3c 2a75 54bc 808c 243c aa5a 83bc
00000280: 0f63 483c 2108 0538 43c8 793b e4be 3b3c
00000290: cfaa 903c 66f0 003b 563b 863a db1d 98bc
000002a0: 6edd 58bc f67b 913c a0ab a5bc c251 f1bc
000002b0: c146 53bd 3a93 edbc a489 253c 97ce b53c
000002c0: 632e 10bd 539e 77ba 7a60 3d3c 21d9 c33a
000002d0: 3238 54bd 7e5b 5a3c 81e4 923b e042 bc3c
000002e0: 19ea eb3b a496 573d 9f46 f33c d48c 283a
000002f0: c9d0 3bbd bc93 83bc bd0d a1b9 67b7 babc
00000300: 05fa e1ba 2ce4 87bc 1231 9abc 8edf 88bb
00000310: 3f3c a0ba 92cf 2c3c d631 ee3a eb40 d5bb

sequential_11/lstm_24/Read_2/ReadVariableOp f4 [200]
0.006992403 0.0012515609 0.014311697 -0.0074894284 0.013657188 0.053970158 0.04994021 0.08406151
0.013723757 0.0028662658 0.04021164 0.009862069 0.025974762 -0.007608517 0.049005255 0.024323627
0.00020753285 -0.009398375 0.042643964 0.09328731 -0.011925889 -0.024863102 -0.0052166968 0.050990097
-0.0037190781 0.06131887 -0.044317067 0.03170508 0.10211492 -0.0133815855 0.020935597 0.0077653825
-0.005251127 0.09917044 0.0016692237 0.003552049 0.02362463 -0.026556378 0.04483188 0.066142805
0.008382227 -0.0039817845 -0.02205125 -0.0060483436 0.08111481 0.014990594 0.07057998 0.09808519
0.11204796 -0.0050683343 1.0425642 1.008442 1.0182903 1.000742 1.028283 1.0704573
1.053013 1.0799394 1.0176591 1.0002772 1.0459485 1.0002633 1.0150943 1.001781
1.0659448 1.0261929 1.0108317 1.0106243 1.0418723 1.1015096 0.994318 1.0081774
1.0123787 1.0464579 1.0020425 1.0415194 0.97679603 1.0379429 1.1072981 1.0030413
1.0382172 1.0364084 1.0020593 1.1120372 0.9914988 1.006871 1.0308799 0.9878965
0.99958664 1.0855317 1.0171691 1.0006444 0.98319125 1.026733 1.0791702 1.0211148
1.0844313 1.0992072 1.060224 1.0080065 -0.054273557 -0.03443682 -0.034055404 0.0581729
0.004031469 0.026632896 0.04024814 -0.042027883 0.03359256 0.0109435385 0.021984065 -0.011623528
-0.012315755 -0.03500201 -0.01758065 0.026061647 0.04053306 0.027465148 -0.052221593 -0.0330724
-0.008497034 -0.07167066 -0.04684138 0.025805369 -0.029942337 0.017624483 0.026552718 -0.057582464
0.028843986 -0.0052722995 -0.019549945 -0.099505074 -0.040418334 0.034523644 -0.023656411 0.03789315
0.0328159 -0.057380192 0.018335108 -0.05038922 0.041420806 0.026015216 -0.0116956495 0.01697583
-0.0146470275 -0.029498884 0.017376225 -0.024960209 -0.0137379505 -0.05584086 -0.0067319777 0.00023409464
0.017050035 -0.0077724145 0.006641553 0.059113275 0.050007556 0.087212 0.0054508005 0.000978253
0.04055204 0.009761112 0.026165094 -0.0070002624 0.05175179 0.025651338 -0.0024348637 -0.005664061
0.04468507 0.096591584 -0.011502337 -0.026372712 -0.006056677 0.051088247 -0.005871614 0.04853418
-0.04783745 0.02948053 0.10394214 -0.012721664 0.02755256 0.005631602 -0.0060598166 0.091257095
-0.0011187388 0.0014645975 0.022442194 -0.024255663 0.05327166 0.06473143 0.0094194105 -0.0056972397
-0.021682547 -0.0064817215 0.08071347 0.013118152 0.07311132 0.098151 0.12168705 -0.0058193486
00000000: 8720 e53b 6a0b a43a 9c7b 6a3c e169 f5bb
00000010: 66c2 5f3c d00f 5d3d 1b8e 4c3d 7128 ac3d
00000020: 9cd9 603c f6d7 3b3b f6b4 243d 8494 213c
00000030: 06c9 d43c de50 f9bb bcb9 483d 5842 c73c
00000040: 2d9d 5939 a4fb 19bc 70ab 2e3d 6b0d bf3d
00000050: ce64 43bc b4ad cbbc d3f0 aabb feda 503d
00000060: c7bb 73bb 7f29 7b3d d085 35bd 30dd 013d
00000070: a121 d13d 703e 5bbc 2181 ab3c c074 fe3b
00000080: a511 acbb df19 cb3d dac9 da3a 7ec9 683b
00000090: 7188 c13c c38c d9bc a2a1 373d e175 873d
000000a0: 9c55 093c a179 82bb d3a4 b4bc 2f31 c6bb
000000b0: 861f a63d 1c9b 753c 3d8c 903d e3e0 c83d
000000c0: 6779 e53d 4514 a6bb be72 853f a114 813f
000000d0: 5657 823f 5018 803f c79e 833f bf04 893f
000000e0: 21c9 863f 743b 8a3f a742 823f 1509 803f
000000f0: a4e1 853f a108 803f 9cee 813f 5c3a 803f
00000100: e170 883f 4a5a 833f ef62 813f 235c 813f
00000110: 125c 853f 44fe 8c3f a08b 7e3f f50b 813f
00000120: a095 813f 55f2 853f ee42 803f 8250 853f
00000130: 4e0f 7a3f 50db 843f f2bb 8d3f a863 803f
00000140: 4de4 843f 08a9 843f 7b43 803f 3c57 8e3f
00000150: ded2 7d3f 26e1 803f dff3 833f c9e6 7c3f
00000160: e9e4 7f3f b4f2 8a3f 9932 823f 1e15 803f
00000170: 6cb2 7b3f fd6b 833f 4022 8a3f e4b3 823f
00000180: a5ce 8a3f d2b2 8c3f 6cb5 873f 5b06 813f
00000190: f34d 5ebd 9f0d 0dbd ae7d 0bbd b546 6e3d
000001a0: 6a1a 843b 3b2d da3c 3cdb 243d 6e25 2cbd
000001b0: 5a98 093d 874c 333c ed17 b43c 9c70 3ebc
000001c0: 05c8 49bc 455e 0fbd 4c05 90bc 3c7f d53c
000001d0: fe05 263d 97fe e03c 4fe6 55bd ed76 07bd
000001e0: 2537 0bbc 11c8 92bd bfdc 3fbd c865 d33c
000001f0: a249 f5bc 3861 903c 1685 d93c 97db 6bbd
00000200: 394a ec3c 41c3 acbb 3527 a0bc 51c9 cbbd
00000210: b28d 25bd aa68 0d3d 17cb c1bc d935 1b3d
00000220: f769 063d 7e07 6bbd 8233 963c ed64 4ebd
00000230: dda8 293d dd1d d53c 1c9f 3fbc e510 8b3c
00000240: 16fa 6fbc a5a7 f1bc 9658 8e3c 5a79 ccbc
00000250: 2415 61bc 63b9 64bd ec97 dcbb 4d77 7539
00000260: 84ac 8b3c bdaf febb 62a1 d93b c320 723d
00000270: b9d4 4c3d 349c b23d a19c b23b b938 803a
00000280: e519 263d 12ed 1f3c 2e58 d63c 7562 e5bb
00000290: aff9 533d c122 d23c 3c92 1fbb 9699 b9bb
000002a0: b107 373d cfd1 c53d 4c74 3cbc 960b d8bc
000002b0: 1777 c6bb e941 513d ab66 c0bb c7cb 463d
000002c0: 34f1 43bd 2781 f13c 9edf d43d 876e 50bc
000002d0: e8b5 e13c 4d89 b83b 6d91 c6bb 00e5 ba3d
000002e0: a5a2 92ba bdf7 bf3a b1d8 b73c d0b3 c6bc
000002f0: 6233 5a3d e991 843d df53 1a3c e9af babb
00000300: 999f b1bc 9f64 d4bb 1b4d a53d 84ed 563c
00000310: 63bb 953d 6403 c93d 0f37 f93d 3cb0 bebb

sequential_11/dense_22/MatMul1 f4 [25, 50]
-0.027518654 -0.36259794 0.22578931 0.03176899 0.07192296 0.0900646 -0.009704131 -0.25796068
-0.22558437 -0.14888959 -0.23890226 -0.02796122 -0.004567937 0.11826878 0.09242198 0.091382
-0.23534998 -0.20830604 0.04612578 -0.039567772 0.13727993 -0.08732838 0.19465922 -0.23737836
0.0146140475 -0.20748506 -0.18163627 -0.010549948 0.14522655 -0.19002245 -0.17946766 0.19127448
0.18153226 -0.20817262 0.1936488 -0.20053348 0.21636802 0.26305902 0.25814688 -0.15848322
-0.14256546 0.089677446 0.18396306 -0.102568895 0.17567137 0.27424604 -0.10237591 -0.11815032
-0.25978804 -0.0642046 -0.28469577 -0.20340621 0.2510656 -0.045430526 -0.10273868 0.23180905
-0.26522434 0.08299037 0.034445312 -0.068370156 0.063149445 -0.15575835 0.07494955 0.19040616
-0.02088775 -0.14233649 -0.053176798 0.005102862 0.103385545 -0.12831014 -0.050676875 -0.027696528
-0.23384082 -0.021378899 -0.07728059 -0.21465777 -0.20118745 -0.25741515 -0.065968856 0.22668064
0.19928046 -0.020761633 -0.23916881 0.09400055 -0.09637348 -0.18250458 -0.22560215 0.038078904
0.018374773 -0.26134962 0.0613708 0.13988933 0.19593929 0.16284214 -0.27174652 0.2561917
-0.28605852 0.123187326 0.18198794 -0.0042621302 -0.14240411 -0.10383922 -0.22002453 -0.2977276
0.06372354 0.15121138 -0.03854298 0.12134956 -0.23807187 -0.11509323 0.09758769 -0.108401164
-0.05761526 -0.07471743 0.23822327 -0.14551593 -0.08475186 -0.032971013 -0.040509727 0.20608394
-0.12012158 -0.16456239 0.0018265998 0.1615139 -0.038037904 0.2582115 0.010130021 0.1973303
0.24037029 0.21436575 0.09592618 0.050191846 -0.20954232 0.23577051 -0.07772224 -0.010426093
-0.06278321 -0.0025314388 -0.22541444 0.082124 -0.19788375 -0.22667126 -0.17432198 -0.25223413
-0.07297339 -0.23116016 0.16330379 -0.20681144 -0.0006688646 -0.13378741 0.042442348 -0.15218247
-0.10134739 0.20242047 0.09029481 -0.23579556 -0.0084964475 0.02953063 -0.10972908 -0.11966808
-0.10162791 0.23465958 -0.0025506674 0.040457934 0.23245233 -0.09287449 -0.2806664 -0.02148094
0.02417628 0.016782302 -0.1023977 0.24564089 -0.11582403 0.04913594 0.26597852 -0.20406951
-0.23557468 -0.27662665 0.1263736 -0.1337304 -0.26557294 -0.08378125 -0.05603717 -0.020399706
-0.018232303 0.123175375 -0.19356051 0.2320648 0.045444995 0.12620664 -0.23507671 0.11569747
0.12439105 0.24880321 -0.24211389 -0.1682169 0.19230536 -0.23240943 0.14408313 -0.036328968
-0.19213566 0.35423303 0.12953983 -0.15355115 -0.08592499 -0.124659374 -0.101267256 -0.05187637
0.2561063 0.24149744 0.27269816 0.0059984205 0.19865784 0.22387227 -0.2585406 0.21953753
-0.19707541 0.22729938 0.03894414 0.20942348 0.25521377 0.25285986 -0.02371365 -0.24169658
-0.10631955 0.15940243 0.05216385 0.29850224 -0.24227373 0.042143103 0.24614765 -0.0070385034
-0.15360786 0.1661663 0.2529405 0.20673461 -0.12947541 0.013066669 0.028939404 -0.20034452
0.084457554 0.030492024 -0.09175379 0.26994407 0.16784154 -0.15554212 -0.06309385 0.13883425
-0.22719343 0.03749213 -0.28554335 -0.36137632 -0.08925635 0.018080376 -0.27092376 -0.08467064
00000000: cd6e e1bc 70a6 b9be 5035 673e 3320 023d
00000010: 584c 933d ca73 b83d 13fe 1ebc 6c13 84be
00000020: 97ff 66be 8376 18be cba2 74be ee0e e5bc
00000030: a2ae 95bb e736 f23d bc47 bd3d 7c26 bb3d
00000040: 96ff 70be 2e4e 55be 63ee 3c3d d111 22bd
00000050: 1c93 0c3e 39d9 b2bd bf54 473e 5013 73be
00000060: c26f 6f3c f776 54be dcfe 39be b0d9 2cbc
00000070: 45b6 143e 3f95 42be 5fc6 37be 75dd 433e
00000080: 98e3 393e 342b 55be df4b 463e a658 4dbe
00000090: 948f 5d3e acaf 863e d42b 843e 6d49 22be
000000a0: aefc 11be cfa8 b73d d060 3c3e a40f d2bd
000000b0: 32e3 333e fa69 8c3e 76aa d1bd ccf8 f1bd
000000c0: f002 85be b47d 83bd a5c3 91be b849 50be
000000d0: ac8b 803e 5c15 3abd a868 d2bd 5a5f 6d3e
000000e0: 7ccb 87be dbf6 a93d 8716 0d3d a705 8cbd
000000f0: 7f54 813d 1e7f 1fbe 267f 993d d5f9 423e
00000100: c91c abbc a8c0 11be eacf 59bd e935 a73b
00000110: cdbb d33d bc63 03be 8e92 4fbd d4e3 e2bc
00000120: f873 6fbe cd22 afbc 4945 9ebd 3fcf 5bbe
00000130: 1504 4ebe ebcb 83be ae1a 87bd f81e 683e
00000140: 2d10 4c3e 4d14 aabc abe8 74be 5c83 c03d
00000150: 765f c5bd 7be2 3abe 4004 67be a0f8 1b3d
00000160: b186 963c 9ecf 85be f35f 7b3d 263f 0f3e
00000170: 4fa4 483e 17c0 263e 5c22 8bbe 8f2b 833e
00000180: 4376 92be a349 fc3d 0c5b 3a3e 57a9 8bbb
00000190: 62d2 11be a8a9 d4bd 1c4e 61be c16f 98be
000001a0: 7d81 823d 28d7 1a3e 3edf 1dbd 1e86 f83d
000001b0: 1dc9 73be 00b6 ebbd 0edc c73d 6e01 debd
000001c0: fbfd 6bbd 7405 99bd cdf0 733e 2102 15be
000001d0: 6292 adbd 9d0c 07bd 87ed 25bd ab07 533e
000001e0: 4e02 f6bd 0b83 28be 856a ef3a e663 253e
000001f0: a2cd 1bbd 4c34 843e 63f8 253c f410 4a3e
00000200: a123 763e b282 5b3e f274 c43d f795 4d3d
00000210: 4392 56be d36d 713e d62c 9fbd 34d2 2abc
00000220: 7c94 80bd 7fe6 25bb 0bd3 66be a130 a83d
00000230: 0aa2 4abe 831c 68be 7681 32be d524 81be
00000240: 1373 95bd 40b5 6cbe 1c39 273e 61c6 53be
00000250: be56 2fba 91ff 08be 07d8 2d3d b9d5 1bbe
00000260: 388f cfbd 5047 4f3e 7cec b83d 6474 71be
00000270: af34 0bbc 38ea f13c a4b9 e0bd 8a14 f5bd
00000280: 4b22 d0bd 9a4a 703e 1929 27bb 38b7 253d
00000290: fc07 6e3e fb34 bebd 82b3 8fbe ccf8 afbc
000002a0: 550d c63c 0a7b 893c e3b5 d1bd 4989 7b3e
000002b0: 2635 edbd c442 493d 562e 883e 99f7 50be
000002c0: 7d3a 71be 02a2 8dbe 1568 013e 9ff0 08be
000002d0: 2df9 87be 8195 abbd 3b87 65bd 491d a7bc
000002e0: e95b 95bc 5f43 fc3d ba34 46be 65a2 6d3e
000002f0: 8824 3a3d 503c 013e f3b7 70be ccf2 ec3d
00000300: bcc0 fe3d 45c6 7e3e b4ec 77be 0d41 2cbe
00000310: b2eb 443e bdfc 6dbe 878a 133e afcd 14bd
00000320: 36bf 44be 085e b53e 17a6 043e 833c 1dbe
00000330: 71f9 afbd 6a4d ffbd 3565 cfbd 517c 54bd
00000340: 5d20 833e 1b4b 773e 189f 8b3e 668e c43b
00000350: f66c 4b3e c63e 653e 6f5f 84be 72ce 603e
00000360: 23ce 49be 2bc1 683e e483 1f3d 1c73 563e
00000370: 61ab 823e d976 813e 2143 c2bc 4f7f 77be
00000380: 10be d9bd 643a 233e c3a9 553d 49d5 983e
00000390: 9b16 78be 3f9e 2c3d 210e 7c3e 3fa3 e6bb
000003a0: 614b 1dbe 8027 2a3e 6b81 813e 3db2 533e
000003b0: 3495 04be 9515 563c 5412 ed3c 1d27 4dbe
000003c0: 15f8 ac3d 69ca f93c 69e9 bbbd 1c36 8a3e
000003d0: a7de 2b3e 6f46 1fbe 5937 81bd 912a 0e3e
000003e0: 65a5 68be 5991 193d bd32 92be 5106 b9be
000003f0: 09cc b6bd 4c1d 943c 85b6 8abe cd67 adbd

sequential_11/dense_23/MatMul f4 [1, 25]
0.2790274 0.0806854 0.068835735 0.040526353 -0.14660764 0.20403296 0.3371814 0.21768126
-0.21240842 0.37580648 -0.32621458 0.45153812 -0.0011719271 -0.3707855 -0.006074968 -0.03254465
-0.3599058 -0.2645084 0.040235337 0.13727553 0.2895004 0.17152292 -0.2089826 0.0017812873
-0.036337476
00000000: aedc 8e3e 633e a53d c0f9 8c3d f6fe 253d
00000010: 5020 16be 04ee 503e 0aa3 ac3e d6e7 5e3e
00000020: 9881 59be b569 c03e 9905 a7be 0130 e73e
00000030: 599b 99ba 99d7 bdbe 8610 c7bb 8a4d 05bd
00000040: 9345 b8be a56d 87be cfcd 243d f591 0c3e
00000050: 6539 943e b4a3 2f3e 89ff 55be 157a e93a
00000060: 9bd6 14bd

sequential_11/lstm_24/Read_2/ReadVariableOp1 f4 [200]
0.006992403 0.0012515609 0.014311697 -0.0074894284 0.013657188 0.053970158 0.04994021 0.08406151
0.013723757 0.0028662658 0.04021164 0.009862069 0.025974762 -0.007608517 0.049005255 0.024323627
0.00020753285 -0.009398375 0.042643964 0.09328731 -0.011925889 -0.024863102 -0.0052166968 0.050990097
-0.0037190781 0.06131887 -0.044317067 0.03170508 0.10211492 -0.0133815855 0.020935597 0.0077653825
-0.005251127 0.09917044 0.0016692237 0.003552049 0.02362463 -0.026556378 0.04483188 0.066142805
0.008382227 -0.0039817845 -0.02205125 -0.0060483436 0.08111481 0.014990594 0.07057998 0.09808519
0.11204796 -0.0050683343 1.0425642 1.008442 1.0182903 1.000742 1.028283 1.0704573
1.053013 1.0799394 1.0176591 1.0002772 1.0459485 1.0002633 1.0150943 1.001781
1.0659448 1.0261929 1.0108317 1.0106243 1.0418723 1.1015096 0.994318 1.0081774
1.0123787 1.0464579 1.0020425 1.0415194 0.97679603 1.0379429 1.1072981 1.0030413
1.0382172 1.0364084 1.0020593 1.1120372 0.9914988 1.006871 1.0308799 0.9878965
0.99958664 1.0855317 1.0171691 1.0006444 0.98319125 1.026733 1.0791702 1.0211148
1.0844313 1.0992072 1.060224 1.0080065 -0.054273557 -0.03443682 -0.034055404 0.0581729
0.004031469 0.026632896 0.04024814 -0.042027883 0.03359256 0.0109435385 0.021984065 -0.011623528
-0.012315755 -0.03500201 -0.01758065 0.026061647 0.04053306 0.027465148 -0.052221593 -0.0330724
-0.008497034 -0.07167066 -0.04684138 0.025805369 -0.029942337 0.017624483 0.026552718 -0.057582464
0.028843986 -0.0052722995 -0.019549945 -0.099505074 -0.040418334 0.034523644 -0.023656411 0.03789315
0.0328159 -0.057380192 0.018335108 -0.05038922 0.041420806 0.026015216 -0.0116956495 0.01697583
-0.0146470275 -0.029498884 0.017376225 -0.024960209 -0.0137379505 -0.05584086 -0.0067319777 0.00023409464
0.017050035 -0.0077724145 0.006641553 0.059113275 0.050007556 0.087212 0.0054508005 0.000978253
0.04055204 0.009761112 0.026165094 -0.0070002624 0.05175179 0.025651338 -0.0024348637 -0.005664061
0.04468507 0.096591584 -0.011502337 -0.026372712 -0.006056677 0.051088247 -0.005871614 0.04853418
-0.04783745 0.02948053 0.10394214 -0.012721664 0.02755256 0.005631602 -0.0060598166 0.091257095
-0.0011187388 0.0014645975 0.022442194 -0.024255663 0.05327166 0.06473143 0.0094194105 -0.0056972397
-0.021682547 -0.0064817215 0.08071347 0.013118152 0.07311132 0.098151 0.12168705 -0.0058193486
00000000: 8720 e53b 6a0b a43a 9c7b 6a3c e169 f5bb
00000010: 66c2 5f3c d00f 5d3d 1b8e 4c3d 7128 ac3d
00000020: 9cd9 603c f6d7 3b3b f6b4 243d 8494 213c
00000030: 06c9 d43c de50 f9bb bcb9 483d 5842 c73c
00000040: 2d9d 5939 a4fb 19bc 70ab 2e3d 6b0d bf3d
00000050: ce64 43bc b4ad cbbc d3f0 aabb feda 503d
00000060: c7bb 73bb 7f29 7b3d d085 35bd 30dd 013d
00000070: a121 d13d 703e 5bbc 2181 ab3c c074 fe3b
00000080: a511 acbb df19 cb3d dac9 da3a 7ec9 683b
00000090: 7188 c13c c38c d9bc a2a1 373d e175 873d
000000a0: 9c55 093c a179 82bb d3a4 b4bc 2f31 c6bb
000000b0: 861f a63d 1c9b 753c 3d8c 903d e3e0 c83d
000000c0: 6779 e53d 4514 a6bb be72 853f a114 813f
000000d0: 5657 823f 5018 803f c79e 833f bf04 893f
000000e0: 21c9 863f 743b 8a3f a742 823f 1509 803f
000000f0: a4e1 853f a108 803f 9cee 813f 5c3a 803f
00000100: e170 883f 4a5a 833f ef62 813f 235c 813f
00000110: 125c 853f 44fe 8c3f a08b 7e3f f50b 813f
00000120: a095 813f 55f2 853f ee42 803f 8250 853f
00000130: 4e0f 7a3f 50db 843f f2bb 8d3f a863 803f
00000140: 4de4 843f 08a9 843f 7b43 803f 3c57 8e3f
00000150: ded2 7d3f 26e1 803f dff3 833f c9e6 7c3f
00000160: e9e4 7f3f b4f2 8a3f 9932 823f 1e15 803f
00000170: 6cb2 7b3f fd6b 833f 4022 8a3f e4b3 823f
00000180: a5ce 8a3f d2b2 8c3f 6cb5 873f 5b06 813f
00000190: f34d 5ebd 9f0d 0dbd ae7d 0bbd b546 6e3d
000001a0: 6a1a 843b 3b2d da3c 3cdb 243d 6e25 2cbd
000001b0: 5a98 093d 874c 333c ed17 b43c 9c70 3ebc
000001c0: 05c8 49bc 455e 0fbd 4c05 90bc 3c7f d53c
000001d0: fe05 263d 97fe e03c 4fe6 55bd ed76 07bd
000001e0: 2537 0bbc 11c8 92bd bfdc 3fbd c865 d33c
000001f0: a249 f5bc 3861 903c 1685 d93c 97db 6bbd
00000200: 394a ec3c 41c3 acbb 3527 a0bc 51c9 cbbd
00000210: b28d 25bd aa68 0d3d 17cb c1bc d935 1b3d
00000220: f769 063d 7e07 6bbd 8233 963c ed64 4ebd
00000230: dda8 293d dd1d d53c 1c9f 3fbc e510 8b3c
00000240: 16fa 6fbc a5a7 f1bc 9658 8e3c 5a79 ccbc
00000250: 2415 61bc 63b9 64bd ec97 dcbb 4d77 7539
00000260: 84ac 8b3c bdaf febb 62a1 d93b c320 723d
00000270: b9d4 4c3d 349c b23d a19c b23b b938 803a
00000280: e519 263d 12ed 1f3c 2e58 d63c 7562 e5bb
00000290: aff9 533d c122 d23c 3c92 1fbb 9699 b9bb
000002a0: b107 373d cfd1 c53d 4c74 3cbc 960b d8bc
000002b0: 1777 c6bb e941 513d ab66 c0bb c7cb 463d
000002c0: 34f1 43bd 2781 f13c 9edf d43d 876e 50bc
000002d0: e8b5 e13c 4d89 b83b 6d91 c6bb 00e5 ba3d
000002e0: a5a2 92ba bdf7 bf3a b1d8 b73c d0b3 c6bc
000002f0: 6233 5a3d e991 843d df53 1a3c e9af babb
00000300: 999f b1bc 9f64 d4bb 1b4d a53d 84ed 563c
00000310: 63bb 953d 6403 c93d 0f37 f93d 3cb0 bebb

while/MatMul_1 f4 [200, 50]
-0.1302121 -0.07825911 0.104123764 0.15119004 -0.057083987 0.152884 0.13488252 -0.030410906
0.12611946 -0.092982054 0.048440013 0.06263543 -0.121534154 -0.062604025 -0.033531815 -0.0066800066
-0.04307348 -0.020769978 -0.19058159 -0.013091213 0.03168575 -0.11591691 0.011722784 0.08574411
-0.038867753 0.057774294 0.07807854 -0.33626595 -0.05572875 0.043264 -0.13824545 -0.18705821
-0.07395861 0.06966269 -0.17686601 0.047300078 -0.06630825 -0.12644407 -0.04042311 -0.046601094
-0.014095854 -0.0052507706 -0.08793788 0.096637875 -0.04652824 -0.0049525606 0.18857658 -0.16031907
0.035609614 -0.21019551 -0.051010866 -0.1005922 -0.10196697 0.075294115 0.04975537 -0.10164361
-0.22470513 0.075905316 -0.031362288 0.02871683 -0.19865885 -0.05104016 0.07160914 -0.14989
0.16545762 -0.013861415 0.021101804 -0.05870683 0.17942622 0.042852703 -0.10289321 -0.06995399
-0.042214822 -0.052286327 0.02479956 0.028400432 -0.075555995 -0.02071739 0.0046436135 0.088077314
0.037759323 0.045578096 0.04102982 -0.17846501 -0.083979115 0.10053806 0.06484022 0.0035294502
-0.13511276 -0.04450837 -0.027201599 -0.027902728 0.0809784 0.031388775 0.16625112 0.006260121
-0.049591202 0.11980259 0.08168577 -0.06152322 -0.11559774 0.039550886 0.09640169 0.07123593
0.09960782 -0.20930345 -0.068310335 0.07258104 -0.01851259 -0.010603332 -0.08430799 0.02008664
0.009719618 0.002311964 0.14701363 0.020664863 -0.07664593 0.019494902 0.07500619 0.13154705
-0.046233576 0.070935994 0.057215806 0.0077648736 0.035726707 -0.060286574 -0.017121788 -0.19820347
-0.12797332 0.01034441 0.054504715 -0.01741927 0.03620388 -0.091903165 -0.13971506 -0.19267172
-0.08340278 0.00197966 -0.12955397 -0.11249875 -0.09569729 -0.06376093 -0.08757552 0.02737941
0.12996323 0.11381362 -0.098300524 0.016991016 0.07945132 -0.07919659 -0.108042285 -0.014322772
-0.08967098 -0.06265037 -0.12778956 0.054630097 0.012105405 0.0017038549 0.11097699 0.0993395
0.02842941 -0.03510254 0.072078176 -0.020027578 0.005365912 0.10555159 0.008378509 0.015217039
-0.025172245 -0.20608976 -0.008661694 -0.05171961 -0.09159596 -0.0199079 -0.019988839 -0.08836443
0.03157563 0.052075915 0.050130084 -0.0927289 0.0024364423 0.051826127 -0.061948396 0.12456258
-0.006171775 -0.020149248 -0.12419919 -0.09682244 -0.022389332 -0.08404246 0.054724753 0.001739035
0.05032378 0.12061047 -0.09358777 0.030334137 0.16908914 -0.07443827 0.14751919 0.029998984
-0.053189803 -0.015058858 -0.07210279 -0.07602146 0.056501947 0.055990405 0.015277932 0.041637596
0.12620567 -0.048220012 -0.03369664 -0.055555236 0.088734016 -0.09624485 -0.0898654 -0.06462055
0.05447205 -0.003565948 -0.12149818 0.0765246 -0.035740726 -0.0179194 -0.052871246 0.106824614
-0.06253358 -0.040511124 -0.0324789 -0.03485879 0.06301945 0.098779954 -0.13114427 -0.009363174
-0.11675774 -0.03418885 -0.009626167 -0.008224108 0.0074612903 -0.1595392 -0.043499026 -0.0036727588
-0.0015362472 0.06801053 0.10294983 0.0020388972 0.10436092 -0.078186676 0.0060952744 -0.00486143
0.15650143 0.012451153 -0.05699011 0.021683063 0.05225007 0.16412486 -0.0097258305 -0.091392346
00000000: 5256 05be 5046 a0bd d73e d53d 90d1 1a3e
00000010: e6d0 69bd a08d 1c3e a51e 0a3e 4b20 f9bc
00000020: 7625 013e 606d bebd 0969 463d 0147 803d
00000030: e6e6 f8bd 8a36 80bd a858 09bd f5e3 dabb
00000040: d16d 30bd cd25 aabc d227 43be 877c 56bc
00000050: ebc8 013d d865 edbd eb10 403c 9c9a af3d
00000060: cb33 1fbd bda4 6c3d a4e7 9f3d 0d2b acbe
00000070: d443 64bd 9835 313d 3790 0dbe 308c 3fbe
00000080: 9d77 97bd 50ab 8e3d 5d1c 35be babd 413d
00000090: 9fcc 87bd 8e7a 01be b492 25bd cae0 3ebd
000000a0: 4cf2 66bc a80e acbb c618 b4bd 14ea c53d
000000b0: 6594 3ebd 1749 a2bb 381a 413e af2a 24be
000000c0: 63db 113d 7e3d 57be c5f0 50bd 4903 cebd
000000d0: 0fd4 d0bd cd33 9a3d 49cc 4b3d 862a d0bd
000000e0: 1a19 66be 3f74 9b3d be75 00bd 8f3f eb3c
000000f0: 3a6d 4bbe 7d0f 51bd d0a7 923d c47c 19be
00000100: b96d 293e fd1a 63bc b1dd ac3c 9376 70bd
00000110: 82bb 373e 5186 2f3d adb9 d2bd 0a44 8fbd
00000120: 73e9 2cbd 302a 56bd 7228 cb3c 06a8 e83c
00000130: 1abd 9abd 84b7 a9bc 7429 983b e161 b43d
00000140: 85a9 1a3d 19b0 3a3d e20e 283d 88bf 36be
00000150: 3efd abbd e6e6 cd3d f3ca 843d 594e 673b
00000160: 005b 0abe 694e 36bd e3d5 debc 4394 e4bc
00000170: 01d8 a53d 8491 003d bc3d 2a3e b321 cd3b
00000180: 2520 4bbd 0f5b f53d de4a a73d c6ff 7bbd
00000190: 82be ecbd 1c00 223d 406e c53d 25e4 913d
000001a0: 2fff cb3d a553 56be 4ae6 8bbd 5ea5 943d
000001b0: b7a7 97bc 99b9 2dbc aba9 acbd bd8c a43c
000001c0: 083f 1f3c 5284 173b be8a 163e 5c49 a93c
000001d0: 8bf8 9cbd c6b3 9f3c d89c 993d 45b4 063e
000001e0: 6b5f 3dbd e446 913d 1f5b 6a3d 7b70 fe3b
000001f0: 2b56 123d 0eef 76bd fe42 8cbc daf5 4abe
00000200: 700b 03be 9a7b 293c 5640 5f3d dbb2 8ebc
00000210: 854a 143d ba37 bcbd 7711 0fbe bc4b 45be
00000220: 14cf aabd 2fbd 013b cca9 04be bf65 e6bd
00000230: f1fc c3bd 1795 82bd cb5a b3bd c94a e03c
00000240: 1515 053e 1d17 e93d c951 c9bd be30 8b3c
00000250: 60b7 a23d d231 a2bd 4645 ddbd 0faa 6abc
00000260: 6ba5 b7bd d64e 80bd 44db 02be cfc3 5f3d
00000270: c055 463c e253 df3a e747 e33d 8272 cb3d
00000280: cbe4 e83c aec7 0fbd b99d 933d e010 a4bc
00000290: 88d4 af3b 6f2b d83d 0446 093c e350 793c
000002a0: 0636 cebc 3209 53be c7e9 0dbc f1d7 53bd
000002b0: aa96 bbbd e415 a3bc a2bf a3bc 69f8 b4bd
000002c0: 7355 013d 8e4d 553d 3455 4d3d a6e8 bdbd
000002d0: b8ac 1f3b a247 543d 9abd 7dbd aa1a ff3d
000002e0: 9a3c cabb 0910 a5bc 255c febd d84a c6bd
000002f0: d569 b7bc 741e acbd 1027 603d 55f0 e33a
00000300: 4f20 4e3d 9f02 f73d f2aa bfbd 4c7f f83c
00000310: b425 2d3e 1773 98bd 450f 173e 6ec0 f53c
00000320: 8ddd 59bd 6eb9 76bc a1aa 93bd 24b1 9bbd
00000330: 966e 673d 3256 653d 4b50 7a3c 2f8c 2a3d
00000340: 0f3c 013e 5982 45bd 7d05 0abd e38d 63bd
00000350: 2eba b53d 051c c5bd 5a0b b8bd c757 84bd
00000360: 161e 5f3d aeb2 69bb 0ad4 f8bd eeb8 9c3d
00000370: de64 12bd b5cb 92bc 858f 58bd ddc6 da3d
00000380: 9b11 80bd feee 25bd 9808 05bd 17c8 0ebd
00000390: 5710 813d 254d ca3d af4a 06be 0068 19bc
000003a0: af1e efbd 9c09 0cbd 12b7 1dbc 69be 06bc
000003b0: d77d f43b 3e5e 23be 092c 32bd abb2 70bb
000003c0: e75b c9ba 1b49 8b3d 5cd7 d23d 059f 053b
000003d0: 2ebb d53d 5620 a0bd deba c73b a14c 9fbb
000003e0: e941 203e ecff 4b3c 766e 69bd aea0 b13c
000003f0: 2b04 563d 5910 283e 1759 1fbc e92b bbbd

while/MatMul f4 [200, 2]
-0.037890397 -0.11163572 -0.13559456 0.0128082 -0.11788918 -0.12846781 -0.17367129 0.009112743
0.10268014 0.11911847 -0.17635557 -0.0621556 -0.10285337 -0.008114153 -0.10068459 0.108396135
0.0045984015 0.024062147 -0.16344446 0.11086626 0.037837423 0.21961793 -0.13587563 -0.1269771
0.075899936 -0.16049613 -0.016107067 0.08195491 -0.2806403 0.23322757 0.02608824 0.16306195
0.066515125 -0.006597994 -0.08460473 -0.08430857 0.04501474 -0.15302514 -0.21950604 0.18207501
0.036057215 -0.16939788 0.08860057 -0.13473754 0.028845293 -0.1562708 -0.22116894 0.056381308
0.062848285 -0.08927703 0.038649593 0.13115816 0.10483362 0.028629081 0.0857583 0.11281812
-0.060785335 0.22491086 0.12561354 -0.13590495 -0.37338918 0.18266505 -0.096395016 0.12280596
0.019405706 -0.025830757 -0.058171436 0.19550048 -0.018059611 -0.119250864 0.06740386 -0.13799505
-0.024099559 0.16115072 -0.23560846 0.11116304 -0.15249726 -0.07724251 -0.11172745 -0.0842164
-0.1136908 -0.1382551 -0.13268591 -0.113821596 0.02782088 -0.0301779 0.10102146 -0.22811745
-0.22418697 0.050676193 0.076511994 -0.06276348 -0.047662295 0.093587555 -0.0728779 0.083225116
-0.32617253 0.12863067 -0.09176962 -0.09024421 -0.09065489 -0.089761265 -0.16607112 -0.07170515
-0.11860767 0.007911469 -0.12921886 0.08064806 0.032551177 -0.07351888 -0.088359796 0.06888063
0.027855761 0.18464017 -0.21739325 0.034038574 -0.031326216 0.15169688 -0.00063374866 -0.15280691
0.010357648 -0.063371 0.09112032 0.11087865 -0.048670586 0.09603008 0.07189542 -0.029409295
0.07065522 0.1440349 -0.18327291 0.1986523 0.09587302 0.024300685 0.048939243 0.15807672
-0.022681355 0.10353658 -0.08071888 0.15715021 -0.049050074 0.16954923 0.116667055 -0.1274084
0.11823567 0.14493814 -0.18433832 0.16227406 -0.04301446 0.06340937 -0.029236548 0.0650241
-0.1040255 0.07109922 -0.14334673 -0.107517295 -0.16403042 0.016744383 0.069262326 0.0872604
-0.26823863 -0.08887002 -0.10641352 -0.12708561 0.11026304 -0.017450523 -0.07832721 -0.069896236
0.064198576 -0.069317535 0.0097460905 -0.038169995 -0.16325523 -0.03994309 0.040565994 -0.13623431
-0.3237468 -0.07905513 0.0053792694 0.030219382 -0.22435573 0.00043471713 -0.14672671 -0.036866218
-0.079470806 -0.095759824 -0.11141069 0.17469159 -0.07486775 0.21143979 -0.17055313 0.1782029
0.10379085 0.16756782 0.023898069 0.22844453 -0.21882391 -0.08037696 -0.19710185 -0.01650243
0.0459375 0.052904427 0.013234945 0.16379227 -0.06627828 0.14181833 -0.066774845 -0.077664495
0.2044207 -0.051660974 0.22137603 -0.08218765 0.1388483 -0.17574163 -0.20215689 0.17305326
0.090557545 -0.10518272 -0.14786148 -0.021501012 0.1738999 -0.15214011 0.17080282 0.02121714
-0.2211413 0.022257742 0.02662907 0.16149625 -0.21113484 0.10654387 0.10135946 -0.15081355
0.008820274 -0.13893527 -0.14239739 0.008038674 -0.150709 0.13928533 -0.117176086 0.076230854
0.078112036 -0.015820239 0.10009198 0.06644968 0.012312231 0.094041474 0.109021276 -0.10810194
0.07315622 0.17358746 0.045378447 -0.058444288 -0.1861552 -0.022880284 0.114133045 0.039358206
00000000: f632 1bbd 45a1 e4bd 4dd9 0abe 7cd9 513c
00000010: e26f f1bd 118d 03be e3d6 31be 9d4d 153c
00000020: f749 d23d 62f4 f33d 8e96 34be df96 7ebd
00000030: caa4 d2bd 39f1 04bc b933 cebd cbfe dd3d
00000040: 30ae 963b fb1d c53c fc5d 27be da0d e33d
00000050: 6afb 1a3d 86e3 603e fb22 0bbe 4906 02be
00000060: 6d71 9b3d 1959 24be f8f2 83bc fad7 a73d
00000070: 16b0 8fbe 35d3 6e3e 01b7 d53c b6f9 263e
00000080: 1539 883d fc33 d8bb 3f45 adbd f9a9 acbd
00000090: 6061 383d 9fb2 1cbe 31c6 60be df71 3a3e
000000a0: bbb0 133d a376 2dbe 3774 b53d a3f8 09be
000000b0: f74c ec3c 7405 20be 1c7a 62be 16f0 663d
000000c0: 9ab6 803d e0d6 b6bd 094f 1e3d 534e 063e
000000d0: 02b3 d63d 8987 ea3c 0ca2 af3d 300d e73d
000000e0: 0bfa 78bd 084f 663e d6a0 003e ab2a 0bbe
000000f0: de2c bfbe 8c0c 3b3e c06a c5bd b181 fb3d
00000100: b7f8 9e3c 069b d3bc 2c45 6ebd 4731 483e
00000110: c0f1 93bc cc39 f4bd 090b 8a3d 934e 0dbe
00000120: 706c c5bc b204 253e 5843 71be 73a9 e33d
00000130: 3e28 1cbe 5231 9ebd 5cd1 e4bd a679 acbd
00000140: b9d6 e8bd bf92 0dbe d1de 07be 4c1b e9bd
00000150: 9de8 e33c a537 f7bc 57e4 ce3d 9f97 69be
00000160: 4591 65be d791 4f3d 52b2 9c3d 248a 80bd
00000170: 8a39 43bd d5aa bf3d 0241 95bd ee71 aa3d
00000180: 1600 a7be c2b7 033e b6f1 bbbd f5d1 b8bd
00000190: 45a9 b9bd c1d4 b7bd 8c0e 2abe 26da 92bd
000001a0: 94e8 f2bd 1b9f 013c f351 04be cf2a a53d
000001b0: 6254 053d 1191 96bd fbf5 b4bd 4a11 8d3d
000001c0: c431 e43c 5012 3d3e 569c 5ebe 086c 0b3d
000001d0: eb4f 00bd 6d56 1b3e 2722 26ba 6a79 1cbe
000001e0: 20b3 293c a8c8 81bd 4a9d ba3d 5814 e33d
000001f0: cf5a 47bd 6bab c43d e83d 933d c3eb f0bc
00000200: afb3 903d e37d 133e e5ab 3bbe 826b 4b3e
00000210: 1359 c43d 3b12 c73c 8474 483d ddde 213e
00000220: 40ce b9bc fd0a d43d f14f a5bd fceb 203e
00000230: bbe8 48bd 509e 2d3e 23ef ee3d 5977 02be
00000240: 8b25 f23d aa6a 143e 2fc3 3cbe 2c2b 263e
00000250: ee2f 30bd c6dc 813d 7c81 efbc 5b2b 853d
00000260: 520b d5bd 789c 913d 7cc9 12be 0732 dcbd
00000270: 97f7 27be 842b 893c 68d9 8d3d 95b5 b23d
00000280: 9356 89be 7c01 b6bd 55ef d9bd bb22 02be
00000290: 97d1 e13d 66f4 8ebc 046a a0bd c225 8fbd
000002a0: 8b7a 833d 5af6 8dbd 11ae 1f3c 2458 1cbd
000002b0: 612c 27be 5e9b 23bd 8728 263d 0281 0bbe
000002c0: 24c2 a5be a8e7 a1bd 9544 b03b a38e f73c
000002d0: 82bd 65be bfea e339 873f 16be 0801 17bd
000002e0: 97c1 a2bd ba1d c4bd 4a2b e4bd 5ae2 323e
000002f0: 4354 99bd ac83 583e 7ba5 2ebe d27a 363e
00000300: 4c90 d43d e696 2b3e e2c5 c33c 5ded 693e
00000310: 6013 60be ad9c a4bd 11d5 49be 1b30 87bc
00000320: f628 3c3d 50b2 583d 62d7 583c 29b9 273e
00000330: e8bc 87bd d338 113e 40c1 88bd 900e 9fbd
00000340: a953 513e 759a 53bd 66b0 623e 0052 a8bd
00000350: 402e 0e3e 9df5 33be 3702 4fbe e034 313e
00000360: 3c76 b93d 0a6a d7bd 0069 17be e422 b0bc
00000370: d112 323e 9eca 1bbe efe6 2e3e 91cf ad3c
00000380: dd72 62be de55 b63c 3525 da3c 465f 253e
00000390: bb33 58be ac33 da3d 8c95 cf3d de6e 1abe
000003a0: e982 103c 0c45 0ebe 9fd0 11be a4b4 033c
000003b0: 7653 1abe d0a0 0e3e 04fa efbd ec1e 9c3d
000003c0: 34f9 9f3d 7299 81bc 06fd cc3d c516 883d
000003d0: 3db9 493c d198 c03d 8c46 df3d 8d64 ddbd
000003e0: eed2 953d e9c0 313e c0de 393d 4763 6fbd
000003f0: 789f 3ebe 6f6f bbbc 96be e93d 1236 213d

sequential_11/lstm_25/Read_2/ReadVariableOp1 f4 [200]
0.004838995 0.27418768 -0.00858306 0.022762453 0.011364018 0.016611686 0.010349069 -0.0137067055
0.01102963 -0.011714831 0.017060338 -0.0013267559 0.0044597983 0.0151428385 0.024818046 0.0027393773
0.004635024 -0.012057326 -0.014065742 0.057409883 -0.01897248 -0.026742844 -0.050783634 -0.029023604
0.014876522 0.032982938 -0.035366688 0.0073392806 0.019086596 0.0023377172 -0.047550064 0.01236
0.009270218 0.024848737 0.006825314 0.091624424 0.057833124 -0.0010921002 -0.044422463 -0.011423567
-0.0006411431 -0.022170536 0.0020462174 -0.015630368 -0.01807292 -0.0006595919 -0.001987418 0.012533257
-0.0016260779 -0.0028447267 1.0013723 1.1609695 0.99287665 1.0405855 1.0092906 1.014781
1.0088505 0.99776495 1.022122 0.9272259 1.014507 0.99741226 1.0006386 1.0035805
1.0190895 0.9751002 1.0040998 0.98283213 0.97620887 1.0222958 0.9613048 0.96878564
0.9586914 0.9677377 1.0122303 1.0459768 0.971868 0.9433377 1.0152152 0.98839754
0.9627631 1.0217892 1.0028863 1.0228443 1.022637 1.1083797 1.0250078 0.940574
0.94603825 0.9812018 1.0027038 0.98353344 1.0011147 0.9820121 0.9949819 1.0022055
1.0015055 0.9664555 0.97362006 0.981153 -0.0169766 0.021100253 0.0098466575 0.033103373
0.01818903 -0.0032320162 0.0041714995 -0.013756185 0.015854554 -0.019703731 -0.0021311163 -0.0153665785
0.011039551 -0.035583302 0.0012819979 0.014429076 0.0019254087 0.027310643 -0.007497382 -0.013297309
-0.0025168797 -0.02728029 -0.0031213514 0.019185478 0.008649747 0.051615156 0.0064053256 0.018674893
0.009015786 0.015255077 0.0014922221 -0.013899234 -0.0072618346 -0.011453638 -0.037394274 0.0160405
-0.018460797 0.018448088 -0.002523789 0.02549532 -0.015262671 -0.014668727 -0.004219238 0.011638487
0.03399494 0.009060188 0.008934387 0.03802693 0.011716414 -0.024659496 0.00055493106 0.21475573
-0.007247611 0.02467032 0.011424563 0.011335048 0.009587107 -0.012967387 0.010043263 -0.016034443
0.012230649 3.171724e-05 0.003811375 0.011459086 0.017659573 0.0019674539 0.0010241072 -0.018568924
-0.013236387 0.017759304 -0.020223439 -0.02945793 -0.051581148 -0.029000867 0.010103617 0.022193236
-0.035200488 -0.00094458944 0.011558646 0.0014942029 -0.051811405 0.0133274775 0.004482806 0.022981107
0.0071995375 0.052633896 0.02969676 0.00064296764 -0.04585341 -0.016061656 -0.0003071855 -0.022792531
-0.0017240649 -0.016588293 -0.018822227 -0.0041770404 -0.0012224986 0.0105475355 0.0018172811 -0.006507983
00000000: 6f90 9e3b 5462 8c3e f69f 0cbc 5378 ba3c
00000010: 2530 3a3c 3b15 883c 248f 293c 1792 60bc
00000020: 9fb5 343c 90ef 3fbc 1fc2 8b3c 8ae6 adba
00000030: 8023 923b ab19 783c 374f cb3c 2087 333b
00000040: 66e1 973b 178c 45bc ff73 66bc a026 6b3d
00000050: 2d6c 9bbc cf13 dbbc 8002 50bd e9c2 edbc
00000060: a8bc 733c 1e19 073d a9dc 10bd 597e f03b
00000070: 7e5b 9c3c 6334 193b dbc3 42bd 9981 4a3c
00000080: 1de2 173c 948f cb3c e2a6 df3b 96a5 bb3d
00000090: 6de2 6c3d cd24 8fba 54f4 35bd ea29 3bbc
000000a0: 6312 28ba fc9e b5bc d519 063b 420b 80bc
000000b0: a90d 94bc 77e8 2cba 573f 02bb 4a58 4d3c
000000c0: 1f22 d5ba 986e 3abb f82c 803f a69a 943f
000000d0: 2a2d 7e3f e831 853f 6f30 813f 58e4 813f
000000e0: 0322 813f 866d 7f3f e5d4 823f ad5e 6d3f
000000f0: 5edb 813f 6956 7f3f ed14 803f 5375 803f
00000100: 8671 823f 2ba0 793f 5886 803f e39a 7b3f
00000110: d3e8 793f 97da 823f 1218 763f 5602 783f
00000120: cd6c 753f a8bd 773f c390 813f 91e2 853f
00000130: 57cc 783f 947e 713f 92f2 813f 9f07 7d3f
00000140: a477 763f fdc9 823f 945e 803f 90ec 823f
00000150: c5e5 823f 63df 8d3f 7533 833f 75c9 703f
00000160: 902f 723f 0b30 7b3f 9958 803f d9c8 7b3f
00000170: 8724 803f 2565 7b3f 22b7 7e3f 4548 803f
00000180: 5531 803f a169 773f 2a3f 793f d82c 7b3f
00000190: 8312 8bbc 70da ac3c e053 213c 6797 073d
000001a0: 2901 953c 3cd0 53bb 13b1 883b 9f61 61bc
000001b0: 69e1 813c b869 a1bc 33aa 0bbb 1ac4 7bbc
000001c0: 3cdf 343c ccbf 11bd b608 a83a ee67 6c3c
000001d0: ff5d fc3a 92ba df3c 99ac f5bb f5dc 59bc
000001e0: 3cf2 24bb ea7a dfbc 968f 4cbb dd2a 9d3c
000001f0: abb7 0d3c 6a6a 533d c4e3 d13b 17fc 983c
00000200: f3b6 133c 6ef0 793c aa96 c33a 9db9 63bc
00000210: aff4 edbb 0aa8 3bbc bd2a 19bd 5e67 833c
00000220: 193b 97bc 7220 973c 2766 25bb 90db d03c
00000230: 4810 7abc 1a55 70bc 8941 8abb 5aaf 3e3c
00000240: 473e 0b3d 2f71 143c 8961 123c 20c2 1b3d
00000250: 34f6 3f3c b602 cabc cb78 113a ede8 5b3e
00000260: 5e7d edbb 6919 ca3c 172e 3b3c a3b6 393c
00000270: 3e13 1d3c 2a75 54bc 808c 243c aa5a 83bc
00000280: 0f63 483c 2108 0538 43c8 793b e4be 3b3c
00000290: cfaa 903c 66f0 003b 563b 863a db1d 98bc
000002a0: 6edd 58bc f67b 913c a0ab a5bc c251 f1bc
000002b0: c146 53bd 3a93 edbc a489 253c 97ce b53c
000002c0: 632e 10bd 539e 77ba 7a60 3d3c 21d9 c33a
000002d0: 3238 54bd 7e5b 5a3c 81e4 923b e042 bc3c
000002e0: 19ea eb3b a496 573d 9f46 f33c d48c 283a
000002f0: c9d0 3bbd bc93 83bc bd0d a1b9 67b7 babc
00000300: 05fa e1ba 2ce4 87bc 1231 9abc 8edf 88bb
00000310: 3f3c a0ba 92cf 2c3c d631 ee3a eb40 d5bb

while/MatMul_12 f4 [200, 50]
-0.07619471 0.09218038 0.011553338 0.06434774 0.07479961 -0.035979997 0.002125463 -0.012230006
-0.04430292 -0.06355364 0.044576187 -0.04506212 0.030907106 -0.0025538814 0.08501198 0.024351096
0.035125174 -0.1147085 0.025203252 -0.008363629 0.031880025 0.08661821 -0.076626696 -0.02070354
0.016920654 0.14898841 0.088716894 0.06287965 -0.06536869 -0.02955105 -0.1378961 0.0105828615
0.087905996 0.065868914 -0.00022966127 -0.067215525 0.03328514 -0.22158511 -0.010380449 -0.043545432
-0.10625917 -0.007812829 -0.051946644 -0.015210699 0.0011488667 -0.025632456 0.024385832 0.002787197
-0.2230301 0.13146856 -0.95384324 -0.6112796 0.46405092 0.9693226 0.5065595 -0.50908774
0.6093571 -0.45695195 0.6229387 -0.053776894 0.79967046 -0.6093216 0.64212924 -0.8360709
-0.64376473 0.7162979 0.64565533 0.78538096 -0.75301176 -0.49440023 -0.65803844 -0.44997984
-0.3812865 0.44060233 0.64485127 0.79170555 0.51224947 0.33533233 0.73055 0.56561345
0.44106832 -0.80763245 -0.6834254 -0.6642545 -0.7931932 0.6682678 -0.49222237 0.30552527
-0.46197382 0.8938297 -0.5307849 -0.047201566 -0.44195196 0.651815 0.38579112 0.86725765
0.29268694 0.3403287 0.29912293 -0.66733265 0.07009692 0.28119248 0.039276306 0.09635103
-0.06792939 -0.01926654 0.06455836 -0.008865593 -0.12020014 -0.08102543 0.11542105 -0.015010523
-0.014415768 -0.029235855 -0.0031260597 0.0032841326 0.006432054 -0.006002014 -0.1544694 -0.010618713
-0.076191105 -0.062046867 -0.055400565 0.12578003 0.00041563867 -0.03600357 0.09049508 -0.058793724
-0.040845864 0.08869524 -0.059393138 0.06967181 -0.21452606 -0.11284361 -0.04016618 -0.08827446
0.20802736 0.016536772 -0.09502663 0.017697142 -0.09471171 -0.03261679 -0.12619753 -0.0035982612
-0.059162837 0.11566523 -0.006486959 0.13397089 0.031935062 -0.002235674 0.004780865 0.302999
0.091912605 -0.02694948 0.02287389 -0.12984489 -0.013386175 0.024582386 -0.014162015 -0.22124554
0.035771422 0.04214921 0.019365024 -0.09087948 -0.06523817 -0.023320472 0.065018594 0.06963323
0.06502385 0.17470403 -0.01396134 0.059376743 0.11913327 0.01665885 0.07609177 0.11691397
0.03040921 0.029383847 -0.05778393 0.024074802 -0.20656687 0.055292293 -0.03570862 -0.0061357333
0.16788661 -0.1588785 0.018711397 -0.115113005 0.023830516 -0.01480972 -0.06469879 0.0504507
-0.0041131014 -0.0496652 -0.016422188 -0.07899436 0.03917654 0.083543874 0.044306155 -0.021138143
0.0032866502 0.07343756 0.04257645 -0.07477472 0.115121044 -0.09556704 0.053570855 0.06520896
-0.16391595 -0.08113128 0.033256914 0.07211597 -0.021167247 -0.060390174 -0.018480292 -0.050556134
-0.08669388 -0.053096436 0.0018283594 -0.050482564 0.07762335 -0.06211268 0.061306942 0.040757503
0.104383886 0.0061310884 0.032723937 0.20776172 0.026132934 0.068433195 0.076259084 0.06478845
-0.16338049 0.030295772 0.0042973687 -0.023999494 -0.045511767 -0.0681403 -0.16474034 -0.08150692
-0.05627113 -0.22374067 -0.17220631 0.06605998 -0.010593176 -0.11689171 -0.028777389 0.057477903
0.11007155 -0.052764963 -0.013359502 0.31865904 0.02082831 -0.012651047 -0.2088285 0.0044227773
00000000: f90b 9cbd 11c9 bc3d 364a 3d3c bfc8 833d
00000010: 8a30 993d c35f 13bd 5a4b 0b3b 5d60 48bc
00000020: fb76 35bd 6928 82bd 8595 363d 0f93 38bd
00000030: e630 fd3c 055f 27bb c31a ae3d f37b c73c
00000040: 6adf 0f3d 4aec eabd 0d77 ce3c 9a07 09bc
00000050: a194 023d e364 b13d 75ee 9cbd 789a a9bc
00000060: 2f9d 8a3c 6b90 183e 34b1 b53d 0cc7 803d
00000070: 05e0 85bd 0b15 f2bc a334 0dbe bd63 2d3c
00000080: 0f08 b43d 48e6 863d 3ad1 70b9 4ba8 89bd
00000090: 0056 083d 35e7 62be c212 2abc b25c 32bd
000000a0: 689e d9bd 6101 00bc 01c6 54bd 4c36 79bc
000000b0: 9295 963a 28fb d1bc ccc4 c73c 68a9 363b
000000c0: 0162 64be b29f 063e 122f 74bf d27c 1cbf
000000d0: 1598 ed3e 8725 783f e2ad 013f 9353 02bf
000000e0: d4fe 1b3f 9bf5 e9be e978 1f3f 2945 5cbd
000000f0: 34b7 4c3f 80fc 1bbf 9562 243f be08 56bf
00000100: c4cd 24bf 4d5f 373f ab49 253f ba0e 493f
00000110: 61c5 40bf 0722 fdbe 3575 28bf c263 e6be
00000120: fc37 c3be a196 e13e f914 253f 37ad 4a3f
00000130: c822 033f aeb0 ab3e 5305 3b3f 0bcc 103f
00000140: b5d3 e13e 00c1 4ebf f8f4 2ebf 950c 2abf
00000150: b60e 4bbf 9913 2b3f 9204 fcbe cf6d 9c3e
00000160: d587 ecbe 06d2 643f 85e1 07bf 6e56 41bd
00000170: 8747 e2be 59dd 263f 6a86 c53e 9904 5e3f
00000180: 10db 953e 903f ae3e a426 993e 50d6 2abf
00000190: f98e 8f3d 76f8 8f3e 31e0 203d b053 c53d
000001a0: 901e 8bbd ddd4 9dbc 2c37 843d fe40 11bc
000001b0: 7e2b f6bd a9f0 a5bd df61 ec3d b2ee 75bc
000001c0: 1d30 6cbc 0880 efbc 94de 4cbb 9a3a 573b
000001d0: fbc3 d23b 8bac c4bb 3a2d 1ebe 1cfa 2dbc
000001e0: 150a 9cbd db24 7ebd b4eb 62bd 7bcc 003e
000001f0: 14ea d939 7b78 13bd 7c55 b93d b0d1 70bd
00000200: fe4d 27bd daa5 b53d 3846 73bd 18b0 8e3d
00000210: b8ac 5bbe 8d1a e7bd 4b85 24bd 3dc9 b4bd
00000220: 2005 553e 2078 873c 529d c2bd 99f9 903c
00000230: 37f8 c1bd 2f99 05bd ed39 01be ced0 6bbb
00000240: bb54 72bd e4e1 ec3d 8e90 d4bb aa2f 093e
00000250: 57ce 023d 6384 12bb cda8 9c3b af22 9b3e
00000260: ad3c bc3d 28c5 dcbc 0662 bb3c 0ff6 04be
00000270: b051 5bbc 0061 c93c cc07 68bc 318e 62be
00000280: 0e85 123d a6a4 2c3d 66a3 9e3c 051f babd
00000290: 979b 85bd 930a bfbc 7828 853d de9b 8e3d
000002a0: 392b 853d 9de5 323e 1bbe 64bc 0735 733d
000002b0: 25fc f33d 2478 883c 00d6 9b3d 9770 ef3d
000002c0: bc1c f93c 65b6 f03c d8ae 6cbd 8538 c53c
000002d0: 4486 53be 2c7a 623d 3443 12bd 430e c9bb
000002e0: 78ea 2b3e 0cb1 22be a548 993c 5ec0 ebbd
000002f0: 3738 c33c 78a4 72bc cd80 84bd 65a5 4e3d
00000300: 32c7 86bb bd6d 4bbd d387 86bc ccc7 a1bd
00000310: 9477 203d 0d19 ab3d 5f7a 353d e629 adbc
00000320: d764 573b 6e66 963d a564 2e3d 7d23 99bd
00000330: 95c4 eb3d a7b8 c3bd 1d6d 5b3d 468c 853d
00000340: 95d9 27be 2828 a6bd 6738 083d 8ab1 933d
00000350: ef66 adbc b05b 77bd fb63 97bc f313 4fbd
00000360: 908c b1bd a67b 59bd 90a5 ef3a cec6 4ebd
00000370: fef8 9e3d de69 7ebd fd1c 7b3d 57f1 263d
00000380: 38c7 d53d 4ce7 c83b 8909 063d 7dbf 543e
00000390: bc14 d63c b426 8c3d b92d 9c3d cfaf 843d
000003a0: 374d 27be d72e f83c f1d0 8c3b 969a c4bc
000003b0: 8c6a 3abd 248d 8bbd b1b1 28be 1aed a6bd
000003c0: 8e7c 66bd 461c 65be da56 30be 744a 873d
000003d0: 008f 2dbc ec64 efbd 8fbe ebbc f36d 6b3d
000003e0: 316d e13d 1320 58bd d0e1 5abc 4727 a33e
000003f0: 22a0 aa3c 5646 4fbc 23d7 55be f2ec 903b
