coffeetracker/assets/volume_forecast_model_6m.tflite (tflite, 516460 bytes, 11 tensors)

sequential_57/lstm_84/Read_2/ReadVariableOp f4 [400]
-0.091790244 -0.21465938 -0.0832964 -0.1249665 -0.08687698 -0.1091335 -0.1022308 -0.06666666
-0.06346801 -0.05334679 0.029291295 -0.07569739 -0.124982715 -0.10509199 -0.11927505 -0.071504846
-0.19430067 -0.2561525 -0.22255561 -0.079881035 -0.122790895 -0.035131905 -0.12653828 -0.119622245
0.006206327 -0.13829614 -0.015679315 -0.068777904 -0.018028086 -0.0046290406 -0.13128923 0.03703689
-0.11767403 -0.10210985 -0.027434576 -0.06071243 -0.14464739 -0.09453 -0.111002475 -0.035786737
0.025659615 -0.097012155 -0.16846544 0.00466708 -0.07774759 -0.039613016 -0.08521076 -0.06520284
-0.1954313 -0.22041193 -0.107057236 -0.13860011 -0.15771493 -0.15598458 0.058027286 -0.116793394
-0.19808105 -0.07457908 -0.12323878 -0.15486261 -0.08674482 -0.05130815 -0.074990965 -0.06275085
-0.20632114 -0.13159437 -0.014769553 -0.027519826 -0.102607206 0.02052123 -0.10541894 -0.11741968
-0.15034178 -0.09212186 -0.20269 -0.055145405 -0.07687346 -0.15084057 -0.2070163 -0.08074653
-0.12879589 -0.055180334 -0.06513704 -0.046599183 -0.08529152 -0.09342759 -0.117187746 -0.09070622
-0.0586027 -0.10673961 -0.18549912 -0.21122476 -0.030642318 -0.15917844 -0.0341934 -0.1233238
-0.061150193 -0.22276808 -0.13574189 0.06380454 0.9758723 0.7520452 0.9831789 0.9231421
0.9483584 0.93613946 0.92565215 0.93652904 0.9365466 1.0108776 0.9658406 0.9514851
0.81362796 0.9553711 0.74706966 0.9010832 0.87940216 0.7774761 0.9442704 0.99818933
0.8084244 0.94933563 0.9890905 0.9634334 0.9665707 0.9342759 0.9985189 0.9048049
0.9988456 0.9665714 0.9542623 0.96930504 0.9594717 0.6146658 0.9973781 0.9875967
0.99280274 0.9982313 0.9457394 1.0050627 0.9447396 0.9636603 0.7081026 0.87404656
0.9734083 0.9708743 0.9111469 0.9450188 0.84344417 0.96095586 0.9475322 0.9418075
0.9108821 0.9175227 0.9622423 0.94704694 0.8941518 0.94379807 0.81299496 0.9368389
0.89214593 1.0189499 0.99538964 0.9882908 0.935106 0.8702103 1.0078118 0.9264255
0.9260615 0.9386375 0.9132459 0.798868 0.9171729 0.9267567 0.81974626 1.0146251
0.9354466 0.9297051 0.79721934 0.94147074 0.83820415 0.9868269 0.94481754 0.99122834
0.96761364 0.93637604 0.9811447 0.9414917 1.0123723 0.9637806 0.940277 0.80544233
0.9277622 0.949219 0.9277787 0.9517604 0.9306776 0.7751683 0.89397806 0.97795624
0.029529084 -0.002037451 -0.0043924158 0.04547852 0.028736841 -0.03909495 -0.03084848 -0.023738423
-0.008388694 -0.029072579 0.004904169 -0.0003773751 -0.038824253 -0.025005123 0.0016082363 -0.013072854
0.0044811578 -0.033314127 -0.03373387 -0.025029697 0.038912617 -0.019762937 -0.0610934 0.03791112
-0.021737557 -0.018435773 -0.018443238 0.006675323 0.054044656 -0.01817163 0.024638884 -0.036724325
-0.044807527 -0.005452735 -0.0355718 -0.043778293 -0.046549704 0.059349086 -0.0025015308 -0.044794228
-0.008878183 -0.020901306 -0.0074867443 0.05336765 -0.024345918 0.04837993 -0.006127138 0.035564777
-0.018652054 0.016371889 -0.017675282 -0.011158152 0.017454678 0.0012423263 -0.084664635 -0.023318922
00000000: 86fc bbbd abcf 5bbe 4e97 aabd 70ee ffbd
00000010: 8fec b1bd 6281 dfbd 625e d1bd 8888 88bd
00000020: 84fb 81bd 2a82 5abd 4cf4 ef3c 3c07 9bbd
00000030: f0f6 ffbd 783a d7bd 7a46 f4bd 2271 92bd
00000040: c1f6 46be 6c26 83be 9ee5 63be ab98 a3bd
00000050: cb79 fbbd 79e6 0fbd 4093 01be 82fc f4bd
00000060: 725e cb3b 819d 0dbe e871 80bc 6edb 8cbd
00000070: a3af 93bc 35af 97bb af70 06be feb3 173d
00000080: 15ff f0bd f81e d1bd 7abe e0bc 99ad 78bd
00000090: 721e 14be f298 c1bd 4455 e3bd 1d95 12bd
000000a0: 1d34 d23c 4fae c6bd 3482 2cbe 4eee 983b
000000b0: 213a 9fbd 4241 22bd fb82 aebd 1189 85bd
000000c0: 251f 48be aab3 61be d340 dbbd 30ed 0dbe
000000d0: 0680 21be 6cba 1fbe 05ae 6d3d 6031 efbd
000000e0: c2d5 4abe ebbc 98bd 9d64 fcbd 4e94 1ebe
000000f0: 45a7 b1bd 7f28 52bd dd94 99bd 8583 80bd
00000100: d945 53be adc0 06be fffb 71bc 4271 e1bc
00000110: ba23 d2bd 231c a83c e3e5 d7bd bb79 f0bd
00000120: 32f3 19be 63aa bcbd f88d 4fbe 26e0 61bd
00000130: d56f 9dbd f375 1abe 15fc 53be 705e a5bd
00000140: 12e3 03be c604 62bd 9266 85bd c9de 3ebd
00000150: 52ad aebd f756 bfbd 2100 f0bd 2fc4 b9bd
00000160: 6209 70bd 4c9a dabd 7bf3 3dbe 4e4b 58be
00000170: 9905 fbbc acff 22be 610e 0cbd 3091 fcbd
00000180: a078 7abd 511d 64be ecff 0abe f4ab 823d
00000190: c4d2 793f 0986 403f 9db1 7b3f 0a53 6c3f
000001a0: 9ec7 723f d6a6 6f3f 8af7 6c3f 5ec0 6f3f
000001b0: 85c1 6f3f 7064 813f 5441 773f 8794 733f
000001c0: ec49 503f 3393 743f f53f 3f3f 63ad 663f
000001d0: 8020 613f ac08 473f b4bb 713f 5689 7f3f
000001e0: e7f4 4e3f a907 733f 0935 7d3f 92a3 763f
000001f0: 2d71 773f b52c 6f3f ef9e 7f3f 4ba1 673f
00000200: 58b4 7f3f 3971 773f 894a 743f 6024 783f
00000210: f09f 753f bd5a 1d3f 2c54 7f3f 23d3 7c3f
00000220: 5228 7e3f 168c 7f3f fa1b 723f e5a5 803f
00000230: 74da 713f 71b2 763f 3646 353f 84c1 5f3f
00000240: 4931 793f 388b 783f ec40 693f c1ec 713f
00000250: f5eb 573f 3401 763f 7891 723f 4c1a 713f
00000260: 922f 693f c5e2 6a3f 8355 763f ab71 723f
00000270: 22e7 643f c09c 713f 7020 503f add4 6f3f
00000280: ad63 643f f36c 823f dbd1 7e3f a000 7d3f
00000290: 1b63 6f3f 1ac6 5e3f faff 803f 392a 6d3f
000002a0: 5e12 6d3f 8c4a 703f 7cca 693f 9d82 4c3f
000002b0: d8cb 6a3f ed3f 6d3f e4da 513f 3cdf 813f
000002c0: 6e79 6f3f 2701 6e3f 9116 4c3f 3a04 713f
000002d0: 8c94 563f b0a0 7c3f 90df 713f 24c1 7d3f
000002e0: 87b5 773f 57b6 6f3f 4d2c 7b3f 9a05 713f
000002f0: 6a95 813f 53ba 763f feb5 703f 7831 4e3f
00000300: d381 6d3f 0400 733f e882 6d3f 92a6 733f
00000310: e340 6e3f 6e71 463f bfdb 643f 575b 7a3f
00000320: fae6 f13c c186 05bb 41ee 8fbb af47 3a3d
00000330: 8669 eb3c 0722 20bd f4b5 fcbc 1577 c2bc
00000340: bc70 09bc 9e29 eebc 27b3 a03b 6eda c5b9
00000350: 2e06 1fbd 8bd7 ccbc 75cb d23a 862f 56bc
00000360: add6 923b 6574 08bd 872c 0abd 140b cdbc
00000370: d662 1f3d e2e5 a1bc 133d 7abd b148 1b3d
00000380: f612 b2bc 9e06 97bc 4616 97bc abbc da3b
00000390: ee5d 5d3d acdc 94bc 7cd7 c93c 3f6c 16bd
000003a0: 1988 37bd dbac b2bb bcb3 11bd de50 33bd
000003b0: e7aa 3ebd 0718 733d b9f0 23bb 277a 37bd
000003c0: cc75 11bc 3739 abbc 5d53 f5bb 0998 5a3d
000003d0: 1771 c7bc 092a 463d 29c6 c8bb 5fac 113d
000003e0: 31cc 98bc 571e 863c c1cb 90bc aed0 36bc
000003f0: 1dfd 8e3c 8ed5 a23a a764 adbd 5307 bfbc

sequential_57/lstm_83/Read_2/ReadVariableOp f4 [400]
0.05075388 -0.03370664 -0.1443854 0.00045297356 -0.0013600457 0.025785163 -0.10115463 -0.17067896
-0.050719056 -0.13138422 0.07222756 -0.016776398 0.0065662814 0.13063416 0.059607532 -0.03974295
0.006308644 0.021727141 -0.135499 0.12006459 -0.034540046 -0.09887854 0.06987235 0.10379136
-0.108654164 -0.023016687 0.060988218 -0.011647051 -0.060723875 0.09057034 0.06683419 -0.0063090785
-0.011183445 0.073291674 -0.1425485 0.07571329 0.12116547 -0.037837297 -0.048051108 0.056102928
0.09734771 0.011980324 0.041902363 -0.037457567 -0.0851334 -0.030948697 0.18443188 -0.0009715696
-0.038878985 -0.035755694 -0.056401666 -0.012951065 0.13595216 0.013841641 0.09844173 -0.033995073
0.15502205 -0.052660145 0.06647478 0.019239211 -0.08461385 -0.0710917 -0.12084508 -0.078148894
0.053511105 0.07197686 -0.048170052 -0.01644043 -0.054223895 -0.09138174 0.064309046 -0.05758252
0.07048968 -0.054328937 0.0024921221 -0.026790628 -0.039416336 -0.07134284 0.008808828 -0.028590012
-0.12213114 0.08404683 -0.07581594 0.009874755 -0.17126791 0.14561 -0.16655828 0.18782736
-0.048547443 0.088343486 -0.11830311 -0.050672047 -0.020426538 -0.031790275 0.009464717 0.010593495
-0.06397505 0.024610246 -0.03992202 -0.03546568 0.91896236 0.8834609 0.7910233 0.90798956
0.9669669 0.8976347 0.8458726 0.7336678 0.9423595 0.8452344 0.90777194 0.91145545
0.90760434 0.85625756 0.97614664 0.86244833 0.8965595 0.929316 0.90161747 1.0051005
0.93435293 0.90695 0.88185483 1.0410843 0.7740691 0.99696857 0.7798581 0.8934078
0.83876187 1.0241286 0.8887815 0.86570203 0.8706648 0.7430751 0.8533117 0.8360885
0.8879498 0.822054 0.94332045 0.89520496 0.888875 0.9346404 0.9369519 0.9113471
0.8743067 0.89383364 0.7171422 0.9354763 0.83261245 0.8593766 0.8941738 0.84133726
0.99764585 0.94562924 0.8658805 0.86793596 1.0223472 0.90808284 0.961816 0.890682
0.8942142 0.8645197 0.8860715 0.8617743 1.0061657 0.98966396 0.8982265 0.9141592
0.8924679 0.80826116 0.9988573 0.9269072 0.90185475 0.88264734 0.9281442 0.8955514
0.9155211 0.832057 0.8835137 0.8763615 0.7697009 0.8909178 0.8948956 0.9645424
0.78294533 0.95555586 0.81614715 1.095593 0.89131284 0.8145181 0.7500993 0.93548775
0.8619767 0.8765412 0.80768484 0.940912 0.88536644 0.8819729 0.89777756 0.8494489
0.005255909 -0.058603957 -0.0028333832 0.07819378 -0.0462843 -0.07439321 -0.04850715 0.018202784
0.08596128 -0.0067195147 0.07504175 -0.022039289 0.06968556 -0.023373604 -0.07625893 -0.037047878
0.076906286 -0.080036595 0.044976544 0.07182437 0.03416533 0.021143774 0.088349864 0.054585617
0.023993162 -0.070971556 0.053445805 -0.066816926 -0.055474684 0.08939501 0.09147549 -0.06588067
0.0149412295 -0.069195814 0.0051689697 0.06592351 0.082608484 0.040665682 0.023171283 0.019598795
0.09408448 -0.068968095 0.04370267 0.053367656 -0.06382169 0.01245023 0.064416036 0.085007146
0.016403064 0.005482639 -0.045073573 0.043063678 0.07649099 -0.0676575 -0.018882563 0.039992455
00000000: 4de3 4f3d f90f 0abd c4d9 13be 157d ed39
00000010: 9043 b2ba 683b d33c 292a cfbd 77c6 2ebe
00000020: c9be 4fbd 9689 06be 0bec 933d a86e 89bc
00000030: f629 d73b f6c4 053e 0727 743d 81c9 22bd
00000040: beb8 ce3b 1efd b13c 40c0 0abe 6ce4 f53d
00000050: dd79 0dbd d580 cabd 3c19 8f3d 9190 d43d
00000060: 1386 debd 7e8d bcbc c8ce 793d 46d3 3ebc
00000070: 99b9 78bd f17c b93d 5de0 883d 63bc cebb
00000080: c53a 37bc f219 963d 3cf8 11be 920f 9b3d
00000090: 9a25 f83d 48fb 1abd 3dd1 44bd 2fcc 653d
000000a0: 3c5e c73d 1f49 443c d0a1 2b3d 1b6d 19bd
000000b0: 6c5a aebd 1f88 fdbc b6db 3c3e efb0 7eba
000000c0: 923f 1fbd 9074 12bd 6f05 67bd b430 54bc
000000d0: 0b37 0b3e 0dc8 623c d19b c93d 6b3e 0bbd
000000e0: 1abe 1e3e 2ab2 57bd ee23 883d 8d9b 9d3c
000000f0: 074a adbd 8698 91bd a07d f7bd 870c a0bd
00000100: 762e 5b3d 9b68 933d f64d 45bd 15ae 86bc
00000110: e019 5ebd 5a26 bbbd 76b4 833d a6db 6bbd
00000120: e55c 903d 0588 5ebd df52 233b 0578 dbbc
00000130: 0673 21bd 321c 92bd e752 103c 9a35 eabc
00000140: e41f fabd bf20 ac3d 6345 9bbd b9c9 213c
00000150: db60 2fbe ca1a 153e 418e 2abe d155 403e
00000160: afd9 46bd 6eed b43d e748 f2bd 7e8d 4fbd
00000170: 8e55 a7bc 8536 02bd e611 1b3c 5790 2d3c
00000180: 5a05 83bd 6d9b c93c 4685 23bd 7644 11bd
00000190: 1e41 6b3f 7e2a 623f 8180 4a3f 0172 683f
000001a0: 258b 773f 63cb 653f 1b8b 583f a7d1 3b3f
000001b0: 793e 713f 4861 583f be63 683f 2555 693f
000001c0: c258 683f b233 5b3f bfe4 793f 6ac9 5c3f
000001d0: ec84 653f a7e7 6d3f 67d0 663f 22a7 803f
000001e0: c131 6f3f e02d 683f 3dc1 613f 4042 853f
000001f0: 6429 463f 5539 7f3f c8a4 473f 60b6 643f
00000200: 19b9 563f a516 833f 2f87 633f a69e 5d3f
00000210: e3e3 5e3f 2b3a 3e3f a372 5a3f e509 563f
00000220: ae50 633f 2272 523f 737d 713f 272c 653f
00000230: 508d 633f 9844 6f3f 14dc 6f3f 0b4e 693f
00000240: 90d2 5f3f 48d2 643f a296 373f 607b 6f3f
00000250: 1726 553f 1b00 5c3f 93e8 643f e161 573f
00000260: b865 7f3f c214 723f 58aa 5d3f 0d31 5e3f
00000270: 46dc 823f 1e78 683f 9339 763f bc03 643f
00000280: 39eb 643f 2a51 5d3f 95d5 623f 3e9d 5c3f
00000290: 0aca 803f 9e5a 7d3f 2cf2 653f 5606 6a3f
000002a0: c778 643f 34ea 4e3f 1db5 7f3f ca49 6d3f
000002b0: f4df 663f 2df5 613f dc9a 6d3f db42 653f
000002c0: 975f 6a3f b001 553f f42d 623f 3a59 603f
000002d0: 1e0b 453f 3013 643f e117 653f 40ec 763f
000002e0: 1b6f 483f 4f9f 743f 05ef 503f 643c 8c3f
000002f0: 142d 643f 4284 503f 8206 403f 207c 6f3f
00000300: 81aa 5c3f 0165 603f 6fc4 4e3f 9cdf 703f
00000310: 60a7 623f fac8 613f c0d4 653f 7c75 593f
00000320: c339 ac3b b40a 70bd 48b0 39bb 0f24 a03d
00000330: 9b94 3dbd 785b 98bd 6faf 46bd 011e 953c
00000340: 780c b03d 602f dcbb 7daf 993d bd8b b4bc
00000350: 4eb7 8e3d 007a bfbc a42d 9cbd 84bf 17bd
00000360: 0b81 9d3d 3aea a3bd 5339 383d a818 933d
00000370: f2f0 0b3d b535 ad3c c6f0 b43d 2b95 5f3d
00000380: 4f8d c43c 8959 91bd fde9 5a3d 50d7 88bd
00000390: 6c39 63bd bb14 b73d 8057 bb3d 72ec 86bd
000003a0: 0fcc 743c 89b6 8dbd 7660 a93b e802 873d
000003b0: a32e a93d 0f91 263d b4d1 bd3c a78d a03c
000003c0: 5daf c03d 253f 8dbd 9201 333d 0b98 5a3d
000003d0: f2b4 82bd 0dfc 4b3c 8eec 833d 3a18 ae3d
000003e0: b85f 863c b6a7 b33b 119f 38bd 8a63 303d
000003f0: 4fa7 9c3d 0490 8abd 9baf 9abc 21cf 233d

sequential_57/dense_114/BiasAdd/ReadVariableOp f4 [25]
0.0063448874 0.04245605 -0.0722606 -0.09898442 0.042379778 0.0017629204 0.05497882 0.04209136
-0.06406176 0.047249403 0.045468934 -0.11351566 -0.105420984 -0.09676824 0.058064327 0.050233297
0.040079936 -0.012397659 -0.07116754 -0.05568622 0.03550956 -0.16971055 -0.021817446 0.041373927
-0.04875188
00000000: c6e8 cf3b 65e6 2d3d 5efd 93bd 58b8 cabd
00000010: 6b96 2d3d cb11 e73a 7931 613d fd67 2c3d
00000020: d032 83bd 9788 413d a23d 3a3d e67a e8bd
00000030: f5e6 d7bd 6d2e c6bd dcd4 6d3d 6ec1 4d3d
00000040: dc2a 243d 8d1f 4bbc 4ac0 91bd 3c17 64bd
00000050: 7972 113d 9ac8 2dbe 80ba b2bc b577 293d
00000060: 0db0 47bd

sequential_57/dense_114/MatMul f4 [25, 100]
-0.14488114 -0.08135662 -0.21108833 -0.037795406 0.07800686 -0.13130692 -0.025188677 -0.07072228
0.037418522 0.18458474 0.042003974 0.1024419 0.25476944 0.124291025 0.2813225 0.2210406
0.045091342 -0.18610424 -0.121229686 0.1886737 -0.08767769 -0.02235466 -0.07649277 -0.089461155
0.10741586 0.12918343 0.12937431 -0.08665813 0.001012734 0.059294354 -0.107753225 0.063458115
-0.08250126 0.23065242 -0.2284282 0.18843433 0.009141947 0.19914903 -0.09958574 0.08044213
0.05785849 -0.11294579 -0.10487152 0.27594227 -0.16098104 0.012052049 0.1944382 -0.10394539
-0.03630184 0.14800245 -0.11892409 0.052500032 0.2993543 -0.00069192506 -0.21145232 -0.053716477
0.1029733 -0.029117014 0.013181541 -0.20895728 0.010286024 -0.11183115 0.05499846 0.14638695
-0.12833461 0.100058556 -0.09606037 -0.18583834 -0.07540921 -0.04664477 0.03902888 0.12949486
-0.053159453 0.13715933 0.25596467 0.020275293 0.08257936 0.05029376 0.11472447 -0.0038700402
-0.028739497 -0.042945165 -0.034738146 0.014973386 -0.003482202 -0.08424351 0.09714318 -0.13384216
-0.1386725 0.11567097 0.016512975 0.018595941 -0.25118694 -0.12730895 0.11835464 0.043318972
0.15665492 0.07571554 0.063646816 -0.06454783 -0.19674593 0.18851301 0.10553782 -0.010389195
0.11949868 -0.120498605 0.22064753 0.005881449 0.039394308 -0.15737347 -0.1314293 -0.01134652
0.07580444 -0.1300537 0.036925502 0.09626859 0.11084648 -0.15366961 -0.07068827 -0.14915153
-0.023523275 -0.2741832 0.05410009 0.10378724 -0.08996082 0.034203794 -0.093980245 -0.2175948
-0.20433791 0.16679305 0.032870308 0.07682205 0.13089205 -0.04328645 -0.004796851 0.0011089012
-0.08149836 0.09341809 0.1764371 0.23949103 0.10496009 -0.1378455 0.25939322 -0.0013132275
0.07890296 -0.051927518 -0.042034704 0.05848761 0.1373979 0.18656261 -0.16023119 -0.10672211
0.09642957 0.15762751 0.17694414 0.09002428 -0.06647631 -0.1528937 -0.107414775 0.1372753
-0.1271745 -0.048800793 -0.006349611 -0.15846412 -0.078472435 -0.13359563 0.12697484 0.087991655
-0.023223383 -0.050524093 0.028414184 -0.22039254 0.005684157 -0.11494453 0.116627626 0.19084692
-0.03766364 0.20018658 0.05733236 0.063083656 0.056555603 0.09467918 -0.176242 0.17068109
0.015852392 0.020893661 -0.17850038 0.23320068 0.18824981 0.015256523 -0.11901066 0.044373095
0.20771335 -0.06617717 -0.09784563 0.09184401 -0.14935118 0.11101968 0.049884725 0.0020116623
0.09097806 -0.11015219 0.18997958 0.060026214 -0.07826244 -0.11983641 0.13089529 0.18169832
0.056338426 -0.027026596 0.2645302 0.061089505 0.040957093 -0.111406855 -0.030942868 -0.18710424
0.029934939 -0.107233085 0.115356945 -0.10603017 0.18615206 -0.06782258 -0.064797856 0.19638653
-0.19866382 -0.012080303 -0.12364184 -0.06794308 -0.00014122072 0.06880401 0.1230491 -0.074269004
0.11696478 -0.2595433 0.06300505 -0.06760049 -0.06629933 -0.019540854 0.07454949 0.045103487
0.05893498 -0.06277764 -0.058617312 -0.018590603 0.19248255 0.020075193 -0.15278754 -0.091675244
-0.19500765 -0.15809824 0.11575726 -0.2256445 -0.040618554 0.073271446 0.089772664 0.08008646
00000000: b95b 14be 4d9e a6bd 8a27 58be 5bcf 1abd
00000010: 10c2 9f3d 5275 06be 7c58 cebc d8d6 90bd
00000020: 2a44 193d c803 3d3e 5c0c 2c3d 0fcd d13d
00000030: 2471 823e 4b8c fe3d 8109 903e 7858 623e
00000040: b3b1 383d 1c92 3ebe 4547 f8bd ae33 413e
00000050: 5c90 b3bd 1f21 b7bc 3ea8 9cbd 6937 b7bd
00000060: d9fc db3d a948 043e b37a 043e d179 b1bd
00000070: b7bd 843a a3de 723d b9ad dcbd 54f6 813d
00000080: 6cf6 a8bd 2630 6c3e 15e9 69be eef4 403e
00000090: 1bc8 153c b9ed 4b3e 9cf3 cbbd d8be a43d
000000a0: 06fd 6c3d 1f50 e7bd e1c6 d6bd 4e48 8d3e
000000b0: 37d8 24be f575 453c cf1a 473e 52e1 d4bd
000000c0: 3db1 14bd f48d 173e 798e f3bd 460a 573d
000000d0: f844 993e 4e62 35ba f586 58be cf05 5cbd
000000e0: aae3 d23d ce86 eebc 64f7 573c e6f8 55be
000000f0: b686 283c bb07 e5bd 1146 613d 76e6 153e
00000100: 266a 03be 80eb cc3d 4dbb c4bd 684c 3ebe
00000110: 2570 9abd 960e 3fbd bfdc 1f3d 4d9a 043e
00000120: babd 59bd 7f73 0c3e cd0d 833e 5f18 a63c
00000130: 5e1f a93d d400 4e3d aaf4 ea3d 80a0 7dbb
00000140: 186f ebbc 45e7 2fbd 9649 0ebd ef52 753c
00000150: a835 64bb dd87 acbd 01f3 c63d eb0d 09be
00000160: 2a00 0ebe e7e4 ec3d 3846 873c 8456 983c
00000170: 939b 80be 475d 02be eb63 f23d 3c6f 313d
00000180: 266a 203e c010 9b3d 4359 823d a731 84bd
00000190: c477 49be 8e09 413e 3624 d83d 7137 2abc
000001a0: b9bb f43d f9c7 f6bd 6df1 613e 2cb9 c03b
000001b0: ed5b 213d 8326 21be 6795 06be c1e6 39bc
000001c0: 5c3f 9b3d cc2c 05be 323f 173d 7728 c53d
000001d0: 7b03 e33d 915b 1dbe 03c5 90bd 2ebb 18be
000001e0: e2b3 c0bc be61 8cbe 0e98 5d3d 688e d43d
000001f0: 613d b8bd 4719 0c3d b778 c0bd 2cd1 5ebe
00000200: f53d 51be cccb 2a3e 04a3 063d e154 9d3d
00000210: 9108 063e 224d 31bd e72e 9dbb 8d58 913a
00000220: 9de8 a6bd fc51 bf3d edab 343e 233d 753e
00000230: 51f5 d63d 5f27 0dbe 30cf 843e 9a20 acba
00000240: e097 a13d f3b1 54bd 952c 2cbd b490 6f3d
00000250: 09b2 0c3e 450a 3f3e a513 24be 1f91 dabd
00000260: de7c c53d 1b69 213e d830 353e a65e b83d
00000270: bb24 88bd 2b90 1cbe 47fc dbbd e591 0c3e
00000280: 083a 02be 57e3 47bd 6610 d0bb 6b44 22be
00000290: 28b6 a0bd 4bcd 08be b105 023e f834 b43d
000002a0: f73e bebc 5af2 4ebd ddc4 e83c 95ae 61be
000002b0: 2a42 ba3b 0a68 ebbd 77da ee3d 606d 433e
000002c0: 3045 1abd b6fd 4c3e 56d5 6a3d 0132 813d
000002d0: d9a6 673d 28e7 c13d c878 34be 06c7 2e3e
000002e0: e0dc 813c 2f29 ab3c cec8 36be 29cc 6e3e
000002f0: 8fc4 403e 7ff6 793c dcbb f3bd 90c0 353d
00000300: cfb2 543e e587 87bd 4a63 c8bd b618 bc3d
00000310: 84ef 18be 495e e33d ed53 4c3d 18d6 033b
00000320: b552 ba3d 7997 e1bd 028a 423e 0cde 753d
00000330: 0f48 a0bd cb6c f5bd 6a09 063e 200f 3a3e
00000340: 1fc3 663d e166 ddbc 8170 873e fd38 7a3d
00000350: a0c2 273d 4729 e4bd e67b fdbc 4198 3fbe
00000360: 1e3a f53c 059d dbbd 4340 ec3d 5926 d9bd
00000370: a59e 3e3e 91e6 8abd bdb4 84bd 8d19 493e
00000380: 876e 4bbe 77ec 45bc ef37 fdbd be25 8bbd
00000390: a614 14b9 1ee9 8c3d 2b01 fc3d 591a 98bd
000003a0: 3b8b ef3d dce2 84be cb08 813d 2072 8abd
000003b0: f1c7 87bd 2414 a0bc 67ad 983d 6fbe 383d
000003c0: ce65 713d 9091 80bd b518 70bd 524b 98bc
000003d0: 251a 453e bb74 a43c 5674 1cbe 3bc0 bbbd
000003e0: 16b0 47be 81e4 21be 2412 ed3d 5a0f 67be
000003f0: a45f 26bd 570f 963d bbda b73d 5f04 a43d

sequential_57/dense_115/MatMul f4 [1, 25]
-0.30786577 0.16754252 0.3481225 -0.43848237 0.37217152 0.07858928 0.4345692 0.2918913
-0.084146336 0.20357619 0.29488167 -0.4206265 -0.12578326 -0.19582169 0.4067458 0.08372384
0.23626037 -0.00059133495 0.387371 -0.26275176 0.053110443 -0.20061274 0.50573874 0.26234066
-0.24291536
00000000: 95a0 9dbe 4490 2b3e 1d3d b23e c380 e0be
00000010: 448d be3e 6bf3 a03d db7f de3e c772 953e
00000020: ea54 acbd 4776 503e bbfa 963e 5b5c d7be
00000030: 54cd 00be 7b85 48be fc40 d03e 6877 ab3d
00000040: 3dee 713e d103 1bba 7e55 c63e 6687 86be
00000050: 568a 593d 6d6d 4dbe 1878 013f 8451 863e
00000060: cebe 78be

sequential_57/lstm_83/Read_2/ReadVariableOp1 f4 [400]
0.05075388 -0.03370664 -0.1443854 0.00045297356 -0.0013600457 0.025785163 -0.10115463 -0.17067896
-0.050719056 -0.13138422 0.07222756 -0.016776398 0.0065662814 0.13063416 0.059607532 -0.03974295
0.006308644 0.021727141 -0.135499 0.12006459 -0.034540046 -0.09887854 0.06987235 0.10379136
-0.108654164 -0.023016687 0.060988218 -0.011647051 -0.060723875 0.09057034 0.06683419 -0.0063090785
-0.011183445 0.073291674 -0.1425485 0.07571329 0.12116547 -0.037837297 -0.048051108 0.056102928
0.09734771 0.011980324 0.041902363 -0.037457567 -0.0851334 -0.030948697 0.18443188 -0.0009715696
-0.038878985 -0.035755694 -0.056401666 -0.012951065 0.13595216 0.013841641 0.09844173 -0.033995073
0.15502205 -0.052660145 0.06647478 0.019239211 -0.08461385 -0.0710917 -0.12084508 -0.078148894
0.053511105 0.07197686 -0.048170052 -0.01644043 -0.054223895 -0.09138174 0.064309046 -0.05758252
0.07048968 -0.054328937 0.0024921221 -0.026790628 -0.039416336 -0.07134284 0.008808828 -0.028590012
-0.12213114 0.08404683 -0.07581594 0.009874755 -0.17126791 0.14561 -0.16655828 0.18782736
-0.048547443 0.088343486 -0.11830311 -0.050672047 -0.020426538 -0.031790275 0.009464717 0.010593495
-0.06397505 0.024610246 -0.03992202 -0.03546568 0.91896236 0.8834609 0.7910233 0.90798956
0.9669669 0.8976347 0.8458726 0.7336678 0.9423595 0.8452344 0.90777194 0.91145545
0.90760434 0.85625756 0.97614664 0.86244833 0.8965595 0.929316 0.90161747 1.0051005
0.93435293 0.90695 0.88185483 1.0410843 0.7740691 0.99696857 0.7798581 0.8934078
0.83876187 1.0241286 0.8887815 0.86570203 0.8706648 0.7430751 0.8533117 0.8360885
0.8879498 0.822054 0.94332045 0.89520496 0.888875 0.9346404 0.9369519 0.9113471
0.8743067 0.89383364 0.7171422 0.9354763 0.83261245 0.8593766 0.8941738 0.84133726
0.99764585 0.94562924 0.8658805 0.86793596 1.0223472 0.90808284 0.961816 0.890682
0.8942142 0.8645197 0.8860715 0.8617743 1.0061657 0.98966396 0.8982265 0.9141592
0.8924679 0.80826116 0.9988573 0.9269072 0.90185475 0.88264734 0.9281442 0.8955514
0.9155211 0.832057 0.8835137 0.8763615 0.7697009 0.8909178 0.8948956 0.9645424
0.78294533 0.95555586 0.81614715 1.095593 0.89131284 0.8145181 0.7500993 0.93548775
0.8619767 0.8765412 0.80768484 0.940912 0.88536644 0.8819729 0.89777756 0.8494489
0.005255909 -0.058603957 -0.0028333832 0.07819378 -0.0462843 -0.07439321 -0.04850715 0.018202784
0.08596128 -0.0067195147 0.07504175 -0.022039289 0.06968556 -0.023373604 -0.07625893 -0.037047878
0.076906286 -0.080036595 0.044976544 0.07182437 0.03416533 0.021143774 0.088349864 0.054585617
0.023993162 -0.070971556 0.053445805 -0.066816926 -0.055474684 0.08939501 0.09147549 -0.06588067
0.0149412295 -0.069195814 0.0051689697 0.06592351 0.082608484 0.040665682 0.023171283 0.019598795
0.09408448 -0.068968095 0.04370267 0.053367656 -0.06382169 0.01245023 0.064416036 0.085007146
0.016403064 0.005482639 -0.045073573 0.043063678 0.07649099 -0.0676575 -0.018882563 0.039992455
00000000: 4de3 4f3d f90f 0abd c4d9 13be 157d ed39
00000010: 9043 b2ba 683b d33c 292a cfbd 77c6 2ebe
00000020: c9be 4fbd 9689 06be 0bec 933d a86e 89bc
00000030: f629 d73b f6c4 053e 0727 743d 81c9 22bd
00000040: beb8 ce3b 1efd b13c 40c0 0abe 6ce4 f53d
00000050: dd79 0dbd d580 cabd 3c19 8f3d 9190 d43d
00000060: 1386 debd 7e8d bcbc c8ce 793d 46d3 3ebc
00000070: 99b9 78bd f17c b93d 5de0 883d 63bc cebb
00000080: c53a 37bc f219 963d 3cf8 11be 920f 9b3d
00000090: 9a25 f83d 48fb 1abd 3dd1 44bd 2fcc 653d
000000a0: 3c5e c73d 1f49 443c d0a1 2b3d 1b6d 19bd
000000b0: 6c5a aebd 1f88 fdbc b6db 3c3e efb0 7eba
000000c0: 923f 1fbd 9074 12bd 6f05 67bd b430 54bc
000000d0: 0b37 0b3e 0dc8 623c d19b c93d 6b3e 0bbd
000000e0: 1abe 1e3e 2ab2 57bd ee23 883d 8d9b 9d3c
000000f0: 074a adbd 8698 91bd a07d f7bd 870c a0bd
00000100: 762e 5b3d 9b68 933d f64d 45bd 15ae 86bc
00000110: e019 5ebd 5a26 bbbd 76b4 833d a6db 6bbd
00000120: e55c 903d 0588 5ebd df52 233b 0578 dbbc
00000130: 0673 21bd 321c 92bd e752 103c 9a35 eabc
00000140: e41f fabd bf20 ac3d 6345 9bbd b9c9 213c
00000150: db60 2fbe ca1a 153e 418e 2abe d155 403e
00000160: afd9 46bd 6eed b43d e748 f2bd 7e8d 4fbd
00000170: 8e55 a7bc 8536 02bd e611 1b3c 5790 2d3c
00000180: 5a05 83bd 6d9b c93c 4685 23bd 7644 11bd
00000190: 1e41 6b3f 7e2a 623f 8180 4a3f 0172 683f
000001a0: 258b 773f 63cb 653f 1b8b 583f a7d1 3b3f
000001b0: 793e 713f 4861 583f be63 683f 2555 693f
000001c0: c258 683f b233 5b3f bfe4 793f 6ac9 5c3f
000001d0: ec84 653f a7e7 6d3f 67d0 663f 22a7 803f
000001e0: c131 6f3f e02d 683f 3dc1 613f 4042 853f
000001f0: 6429 463f 5539 7f3f c8a4 473f 60b6 643f
00000200: 19b9 563f a516 833f 2f87 633f a69e 5d3f
00000210: e3e3 5e3f 2b3a 3e3f a372 5a3f e509 563f
00000220: ae50 633f 2272 523f 737d 713f 272c 653f
00000230: 508d 633f 9844 6f3f 14dc 6f3f 0b4e 693f
00000240: 90d2 5f3f 48d2 643f a296 373f 607b 6f3f
00000250: 1726 553f 1b00 5c3f 93e8 643f e161 573f
00000260: b865 7f3f c214 723f 58aa 5d3f 0d31 5e3f
00000270: 46dc 823f 1e78 683f 9339 763f bc03 643f
00000280: 39eb 643f 2a51 5d3f 95d5 623f 3e9d 5c3f
00000290: 0aca 803f 9e5a 7d3f 2cf2 653f 5606 6a3f
000002a0: c778 643f 34ea 4e3f 1db5 7f3f ca49 6d3f
000002b0: f4df 663f 2df5 613f dc9a 6d3f db42 653f
000002c0: 975f 6a3f b001 553f f42d 623f 3a59 603f
000002d0: 1e0b 453f 3013 643f e117 653f 40ec 763f
000002e0: 1b6f 483f 4f9f 743f 05ef 503f 643c 8c3f
000002f0: 142d 643f 4284 503f 8206 403f 207c 6f3f
00000300: 81aa 5c3f 0165 603f 6fc4 4e3f 9cdf 703f
00000310: 60a7 623f fac8 613f c0d4 653f 7c75 593f
00000320: c339 ac3b b40a 70bd 48b0 39bb 0f24 a03d
00000330: 9b94 3dbd 785b 98bd 6faf 46bd 011e 953c
00000340: 780c b03d 602f dcbb 7daf 993d bd8b b4bc
00000350: 4eb7 8e3d 007a bfbc a42d 9cbd 84bf 17bd
00000360: 0b81 9d3d 3aea a3bd 5339 383d a818 933d
00000370: f2f0 0b3d b535 ad3c c6f0 b43d 2b95 5f3d
00000380: 4f8d c43c 8959 91bd fde9 5a3d 50d7 88bd
00000390: 6c39 63bd bb14 b73d 8057 bb3d 72ec 86bd
000003a0: 0fcc 743c 89b6 8dbd 7660 a93b e802 873d
000003b0: a32e a93d 0f91 263d b4d1 bd3c a78d a03c
000003c0: 5daf c03d 253f 8dbd 9201 333d 0b98 5a3d
000003d0: f2b4 82bd 0dfc 4b3c 8eec 833d 3a18 ae3d
000003e0: b85f 863c b6a7 b33b 119f 38bd 8a63 303d
000003f0: 4fa7 9c3d 0490 8abd 9baf 9abc 21cf 233d

while/MatMul_11 f4 [400, 100]
-0.092839584 0.11228115 -0.21843424 0.14239147 0.07280186 0.029808752 0.05239859 0.1544174
0.0498284 -0.06401244 0.059412394 0.007542184 -0.016107786 -0.23750499 -0.029676406 0.16238785
-0.094096035 -0.24932109 0.06817708 0.025273852 -0.18265764 -0.31061935 0.16531065 -0.12248067
0.22872767 -0.08083301 0.14385614 0.028426813 0.09373276 0.028372927 0.21390407 -0.09027176
-0.31117946 0.0021184562 -0.097252175 0.0258267 0.07149271 0.08493867 -0.12496795 0.04579686
0.05572521 -0.00749117 -0.25196284 -0.107855245 0.054143555 -0.043488365 0.24982117 0.2587871
0.07109848 0.07723399 -0.05648591 0.123681374 -0.100645624 -0.14779094 0.02744267 -0.089230806
0.012762214 0.0852861 0.032082744 -0.060067113 -0.03222043 -0.031706866 0.17322575 0.24685553
0.16544609 0.04349626 0.048881713 -0.006300993 0.0037967009 -0.026846817 -0.10976351 -0.098020226
-0.0434996 0.062110644 0.079410635 -0.16308743 -0.10349631 0.25211185 0.02234909 0.0016416981
-0.015372629 0.23705848 -0.037345383 0.017426841 0.048010018 -0.197385 0.034081537 0.0016467914
0.064993225 0.08268083 -0.011046608 -0.15188757 0.010748322 0.10681626 0.05636336 -0.12490716
-0.20614511 0.085759245 0.06614827 0.065064736 0.008019402 -0.18952994 0.013313993 0.1615787
-0.03889307 -0.1257658 -0.13734764 0.09056616 0.035800345 -0.042432267 0.058215912 -0.021234404
0.092410795 -0.038123235 -0.16786984 -0.045886945 0.13883743 -0.09552649 0.078255415 -0.02001014
0.20356186 0.06386369 0.1706741 0.19159946 0.03236909 -0.20718674 0.05891214 -0.1220961
-0.18572727 0.004909142 0.1335136 -0.12975805 0.13097553 -0.095701955 -0.100035615 0.100739464
0.079478994 -0.053215563 0.12198424 -0.021058919 0.031855583 -0.11527105 -0.0060402 0.10303389
0.011416536 0.080228895 0.20808393 0.1268932 0.11794331 0.0071247304 -0.25470215 0.093288176
-0.07340227 -0.019005932 0.09383005 0.12569298 -0.059970908 0.21774957 0.13872357 0.14377986
0.1623312 -0.10976325 -0.053314507 0.041708224 0.13102797 -0.014281014 -0.15306222 0.05449631
-0.15283264 0.059327513 -0.009551951 0.057519693 -0.09370802 0.15617658 0.005049641 -0.009094665
-0.061195742 -0.17095822 0.1544981 -0.1685412 0.0010808463 0.106871866 -0.13085353 0.041576885
0.007345863 -0.05938111 -0.13419777 -0.054959107 -0.07733194 0.046573766 -0.069858365 0.020567117
-0.03693581 0.110602446 0.035084642 -0.074703395 -0.03317473 -0.119976625 -0.18177268 -0.03204897
-0.19058147 0.033643797 0.05370599 0.051598474 0.13229625 -0.038264442 0.020574577 0.06634033
-0.15164404 0.14203365 0.029659199 0.1366925 0.033710487 -0.027824374 0.13170467 -0.008934307
0.1421767 0.09416214 0.034151852 -0.13142239 -0.04509289 0.075577214 0.065328754 -0.100912064
-0.14720158 0.029829757 0.13450654 -0.054453894 -0.09623718 0.062044855 0.10547829 -0.036557514
-0.041021604 -0.14437632 -0.15478873 0.13750668 0.04067736 0.10127593 -0.112199254 -0.187008
0.09556535 0.0007254329 -0.091081515 -0.06185335 -0.06465813 -0.20757486 0.08171081 0.024822341
-0.18968579 0.047179334 0.1742484 0.13193066 -0.17202285 0.16511069 0.23531516 0.014789894
00000000: ae22 bebd a9f3 e53d 3aad 5fbe 12cf 113e
00000010: 2419 953d 7c31 f43c e79f 563d 981f 1e3e
00000020: dd18 4c3d f418 83bd 695a 733d 6d24 f73b
00000030: 7af4 83bc 8234 73be ef1b f3bc 0049 263e
00000040: 6cb5 c0bd 074e 7fbe 6da0 8b3d 1c0b cf3c
00000050: 9b0a 3bbe 8009 9fbe 3247 293e 25d7 fabd
00000060: 9637 6a3e c78b a5bd 064f 133e 59df e83c
00000070: f6f6 bf3d 576e e83c ab09 5b3e 67e0 b8bd
00000080: ea52 9fbe ccd5 0a3b 262c c7bd 8492 d33c
00000090: c56a 923d 53f4 ad3d 32ef ffbd 7d95 3b3d
000000a0: 1e40 643d 7d78 f5bb 4601 81be 36e3 dcbd
000000b0: a2c5 5d3d db20 32bd 1fd1 7f3e be7f 843e
000000c0: 149c 913d db2c 9e3d c55d 67bd a94c fd3d
000000d0: 4b1f cebd 8256 17be 73cf e03c a4be b6bd
000000e0: 9b18 513c 7baa ae3d 3269 033d ef08 76bd
000000f0: 92f9 03bd 0fdf 01bd 1762 313e b2c7 7c3e
00000100: b36a 293e 2229 323d 3138 483d 8f78 cebb
00000110: 12d2 783b dbed dbbc b1cb e0bd d4be c8bd
00000120: a32c 32bd bb67 7e3d 0ba2 a23d 6400 27be
00000130: e0f5 d3bd ce14 813e 7015 b73c 3f2e d73a
00000140: 7bdd 7bbc 75bf 723e 79f7 18bd bcc2 8e3c
00000150: 27a6 443d 4b1f 4abe 1599 0b3d 26d9 d73a
00000160: 2b1b 853d 9154 a93d d5fc 34bc 6a88 1bbe
00000170: bb19 303c 7cc2 da3d 44dd 663d 53cf ffbd
00000180: b417 53be 8ba2 af3d bf78 873d a940 853d
00000190: cf63 033c 2314 42be ef22 5a3c e374 253e
000001a0: 574e 1fbd c0c8 00be dca4 0cbe c07a b93d
000001b0: 62a3 123d 75cd 2dbd cf73 6e3d c6f3 adbc
000001c0: df41 bd3d 1c27 1cbd 12e6 2bbe f3f3 3bbd
000001d0: 662b 0e3e 64a3 c3bd 6044 a03d 4eec a3bc
000001e0: 8572 503e f7ca 823d 31c5 2e3e a632 443e
000001f0: 7395 043d c328 54be db4d 713d 850d fabd
00000200: 4a2f 3ebe dedc a03b cab7 083e 4bdf 04be
00000210: 731e 063e 63ff c3bd 79df ccbd 7e50 ce3d
00000220: e2c5 a23d 90f8 59bd e0d2 f93d c183 acbc
00000230: 007b 023d 3a13 ecbd dfec c5bb 6f03 d33d
00000240: 6c0c 3b3c 0c4f a43d f413 553e 4bf0 013e
00000250: 438c f13d 9276 e93b 5268 82be df0d bf3d
00000260: ee53 96bd 54b2 9bbc f829 c03d a9b5 003e
00000270: 0ea4 75bd bef9 5e3e 8d0d 0e3e 073b 133e
00000280: 263a 263e 8ecb e0bd 5060 5abd 3ed6 2a3d
00000290: 322c 063e eafa 69bc 58bc 1cbe 8637 5f3d
000002a0: 2980 1cbe 6801 733d c97f 1cbc c599 6b3d
000002b0: fee9 bfbd c1ec 1f3e 7577 a53b ca01 15bc
000002c0: 63a8 7abd ac0f 2fbe c034 1e3e 1096 2cbe
000002d0: 2fab 8d3a a3df da3d 78fe 05be 864c 2a3d
000002e0: 91b5 f03b 9b39 73bd 246b 09be cd1c 61bd
000002f0: 3560 9ebd 22c4 3e3d e711 8fbd 5f7c a83c
00000300: 014a 17bd 8983 e23d eab4 0f3d 18fe 98bd
00000310: 3ae2 07bd 4eb6 f5bd 9e22 3abe c845 03bd
00000320: ca27 43be 14ce 093d d0fa 5b3d ec58 533d
00000330: ab78 073e 2dbb 1cbd 048c a83c 70dd 873d
00000340: 9348 1bbe 4571 113e d9f7 f23c 1ef9 0b3e
00000350: 0214 0a3d f1ef e3bc 97dd 063e 3361 12bc
00000360: c596 113e 14d8 c03d d0e2 0b3d 9793 06be
00000370: 52b3 38bd 3ac8 9a3d 15cb 853d fcaa cebd
00000380: 03bc 16be 895d f43c 15bc 093e 0c0b 5fbd
00000390: 0018 c5bd bf22 7e3d 0005 d83d 55bd 15bd
000003a0: 4506 28bd 63d7 13be f080 1ebe 8dce 0c3e
000003b0: 4e9d 263d c169 cf3d b9c8 e5bd 067f 3fbe
000003c0: c4b7 c33d fa2a 3e3a f288 babd f059 7dbd
000003d0: 7b6b 84bd 818e 54be ff57 a73d 3958 cb3c
000003e0: fe3c 42be 1e3f 413d 2c6e 323e d518 073e
000003f0: c226 30be c712 293e 75f6 703e 5051 723c

while/MatMul f4 [400, 2]
0.05082342 -0.0042473692 0.13020787 0.19845687 -0.20656644 -0.12219848 -0.13314301 -0.0022146327
-0.08752737 0.015188937 -0.11528619 0.069876365 -0.08541156 0.06757641 -0.22083978 -0.18570882
-0.049736965 0.078356974 -0.0794571 -0.12888551 -0.10656021 0.023204198 0.014552002 -0.112627245
0.045095388 -0.024820544 -0.0032202725 -0.017889617 -0.30086738 -0.17900908 -0.044056542 -0.06927321
0.087048404 0.18026355 -0.09831306 -0.12007921 -0.1341677 -0.12694785 -0.16818728 -0.17274684
-0.088028334 -0.024965841 -0.019677892 -0.028118193 -0.013333871 0.029247316 0.08317362 0.1791554
-0.12214939 -0.25288555 -0.052345563 -0.014207049 -0.07032072 -0.13455583 -0.044966575 0.08339075
0.23329823 0.16958025 -0.002356714 -0.003855342 -0.22457205 -0.13393272 -0.13267285 0.06742485
-0.018498471 0.07112694 0.07758015 -0.0023282722 -0.2041946 -0.14868386 -0.13617818 -0.1916205
-0.17222035 -0.124708034 -0.22704037 -0.41603285 -0.17626297 0.042942405 -0.110405706 -0.09660442
-0.18019222 -0.18183324 -0.14947885 0.00025245745 -0.018125609 0.19973873 -0.11102369 0.15537818
0.08336269 0.041626945 -0.007537437 -0.13701528 0.102801904 -0.14445488 -0.11545001 0.021526925
-0.065922596 0.031715132 -0.24865809 -0.24579884 -0.20128481 0.0024787758 -0.2242366 -0.19135995
-0.0765322 -0.111278184 -0.023695473 -0.19971697 0.12232206 0.07002876 -0.23489822 -0.043284126
-0.042221863 -0.03735919 0.047027413 0.05728658 -0.2836559 -0.1692837 -0.0386131 0.12769303
-0.20327355 -0.19733031 -0.23066542 -0.13450667 -0.23518007 -0.26513672 -0.049304467 -0.045460153
0.10625588 -0.05356796 -0.09200534 0.02016575 -0.054537382 0.13876139 -0.06616908 0.034455292
-0.085115194 0.14903425 -0.0561157 -0.07694059 -0.092375346 -0.08125374 -0.015270297 0.057195876
-0.0842472 -0.20719548 0.090972096 -0.02814034 -0.24756646 0.002203961 -0.25847507 -0.0022879466
0.051520728 0.037968095 -0.064140245 -0.021876793 0.13183345 0.09475325 -0.069986545 -0.050792508
-0.18452503 0.0041713384 -0.26700005 -0.17561191 -0.001691642 0.0115481345 -0.16960531 0.07230049
-0.20090435 -0.29353514 0.08334385 0.124778755 -0.17444359 -0.26063925 0.11322697 0.08723079
-0.14469407 -0.07793684 -0.1353152 -0.37238935 -0.22453137 -0.18190116 -0.010868938 0.10238125
0.04337472 -0.025332497 -0.20730951 -0.114286125 -0.15761575 -0.31271753 0.06989965 0.112301536
-0.10578892 -0.21721038 -0.09160849 0.1021028 0.047377314 0.015013575 -0.018050028 0.049926337
-0.24659184 -0.18994619 -0.17630054 -0.19917004 -0.33867267 -0.45230815 -0.2274126 -0.049911387
-0.085243255 -0.06420481 -0.11601893 -0.05012977 -0.35920137 -0.19378553 -0.3674037 -0.39103428
0.08448642 -0.15206473 -0.1233236 -0.19807108 -0.27106535 -0.017859545 -0.19785944 -0.3061376
-0.24627376 0.0068487036 -0.16466968 -0.35126388 0.07556353 0.061785467 -0.2510877 0.050821323
-0.20148572 -0.12335279 0.008620574 -0.06608246 -0.09008647 -0.21889092 0.11019912 0.014487028
-0.029068688 -0.13395162 -0.19347037 -0.13137013 -0.053069916 0.01658366 0.30798176 0.019815503
-0.22869016 -0.41511482 0.023200557 0.09527623 -0.416149 -0.25366643 -0.18619278 -0.048681457
00000000: 382c 503d 842d 8bbb 3655 053e 4738 4b3e
00000010: 2786 53be 3243 fabd a456 08be 5f23 11bb
00000020: 8d41 b3bd 05db 783c 2a1b ecbd 571b 8f3d
00000030: 42ec aebd 8065 8a3d d323 62be 742a 3ebe
00000040: fdb8 4bbd 9f79 a03d 67ba a2bd 90fa 03be
00000050: 3d3c dabd bb16 be3c 856b 6e3c 1da9 e6bd
00000060: f1b5 383d 7454 cbbc 350b 53bb 3f8d 92bc
00000070: 4a0b 9abe 284e 37be a274 34bd 1ddf 8dbd
00000080: 6f46 b23d 0297 383e 5c58 c9bd 17ec f5bd
00000090: 4263 09be 9efe 01be 4939 2cbe 8ce4 30be
000000a0: 3348 b4bd 2a85 ccbc 8833 a1bc 2058 e6bc
000000b0: 4f76 5abc 1198 ef3c ee56 aa3d 8374 373e
000000c0: 7629 fabd 377a 81be 4d68 56bd afc4 68bc
000000d0: 4f04 90bd 01c9 09be df2e 38bd c5c8 aa3d
000000e0: bbe5 6e3e 72a6 2d3e 1a73 1abb e8a9 7cbb
000000f0: 37f6 65be a925 09be 64db 07be 0a16 8a3d
00000100: 1b8a 97bc 00ab 913d 57e2 9e3d ed95 18bb
00000110: 6418 51be 9540 18be 4b72 0bbe 2a38 44be
00000120: 885a 30be ed66 ffbd 457d 68be 4202 d5be
00000130: 487e 34be 60e4 2f3d 631c e2bd 8ad8 c5bd
00000140: 4f84 38be 7e32 3abe fc10 19be 445c 8439
00000150: 287c 94bc 4f88 4c3e 6360 e3bd 751b 1f3e
00000160: 0fba aa3d 0481 2a3d 9bfc f6bb bc4d 0cbe
00000170: ce89 d23d fbeb 13be 0e71 ecbd 3c59 b03c
00000180: 6d02 87bd bae7 013d 3aa0 7ebe b1b2 7bbe
00000190: 9b1d 4ebe f572 223b 479e 65be ddf3 43be
000001a0: eabc 9cbd d1e5 e3bd 021d c2bc 9b82 4cbe
000001b0: fd83 fa3d 3d6b 8f3d 2989 70be b24a 31bd
000001c0: d5f0 2cbd f305 19bd d19f 403d 55a5 6a3d
000001d0: 593b 91be b558 2dbe c528 1ebd f6c1 023e
000001e0: f126 50be f510 4abe 8e33 6cbe 1ebc 09be
000001f0: 0bd3 70be 00c0 87be 7bf3 49bd 6d34 3abd
00000200: af9c d93d 146a 5bbd 4c6d bcbd a532 a53c
00000210: 9762 5fbd 7717 0e3e a883 87bd fe20 0d3d
00000220: e050 aebd 6f9c 183e 94d9 65bd 0793 9dbd
00000230: 492f bdbd 5c68 a6bd 4530 7abc 3946 6a3d
00000240: cc89 acbd 0d2b 54be 944f ba3d 9286 e6bc
00000250: 1082 7dbe 5470 103b d856 84be 60f1 15bb
00000260: 6607 533d 6f84 1b3d f65b 83bd f636 b3bc
00000270: 59ff 063e fe0d c23d 1b55 8fbd ce0b 50bd
00000280: 21f4 3cbe b9af 883b 3bb4 88be 9cd3 33be
00000290: 16ba ddba 6334 3d3c 04ad 2dbe 4812 943d
000002a0: dfb9 4dbe 3d4a 96be 2eb0 aa3d 018c ff3d
000002b0: 57a1 32be 8272 85be 8be3 e73d 0ea6 b23d
000002c0: af2a 14be 5a9d 9fbd 1190 0abe d1a9 bebe
000002d0: 8deb 65be 4c44 3abe a113 32bc 43ad d13d
000002e0: b1a9 313d 1986 cfbc f248 54be d80e eabd
000002f0: 0666 21be 831c a0be 8c27 8f3d 59fe e53d
00000300: dca7 d8bd 666c 5ebe 3b9d bbbd 461b d13d
00000310: b70e 423d 7ffb 753c a7dd 93bc 8f7f 4c3d
00000320: 9282 7cbe 4181 42be 2188 34be 3bf3 4bbe
00000330: 8166 adbe ef94 e7be d9de 68be e26f 4cbd
00000340: 0494 aebd d07d 83bd 559b edbd e054 4dbd
00000350: 3ee9 b7be b76f 46be 561c bcbe a535 c8be
00000360: 3707 ad3d dbb6 1bbe 1591 fcbd 25d3 4abe
00000370: 14c9 8abe 2e4e 92bc aa9b 4abe 11be 9cbe
00000380: 302f 7cbe 176b e03b 2b9f 28be dcd8 b3be
00000390: 0dc1 9a3d c212 7d3d 918e 80be 052a 503d
000003a0: 4652 4ebe 63a0 fcbd 4f3d 0d3c 3e56 87bd
000003b0: 417f b8bd f124 60be 14b0 e13d 005b 6d3c
000003c0: 7521 eebc 9d2a 09be 191d 46be e485 06be
000003d0: d75f 59bd 75da 873c c9af 9d3e 1f54 a23c
000003e0: c12d 6abe ee89 d4be 180f be3c 2f20 c33d
000003f0: 7b11 d5be 91e0 81be 52a9 3ebe 3566 47bd

sequential_57/lstm_84/Read_2/ReadVariableOp1 f4 [400]
-0.091790244 -0.21465938 -0.0832964 -0.1249665 -0.08687698 -0.1091335 -0.1022308 -0.06666666
-0.06346801 -0.05334679 0.029291295 -0.07569739 -0.124982715 -0.10509199 -0.11927505 -0.071504846
-0.19430067 -0.2561525 -0.22255561 -0.079881035 -0.122790895 -0.035131905 -0.12653828 -0.119622245
0.006206327 -0.13829614 -0.015679315 -0.068777904 -0.018028086 -0.0046290406 -0.13128923 0.03703689
-0.11767403 -0.10210985 -0.027434576 -0.06071243 -0.14464739 -0.09453 -0.111002475 -0.035786737
0.025659615 -0.097012155 -0.16846544 0.00466708 -0.07774759 -0.039613016 -0.08521076 -0.06520284
-0.1954313 -0.22041193 -0.107057236 -0.13860011 -0.15771493 -0.15598458 0.058027286 -0.116793394
-0.19808105 -0.07457908 -0.12323878 -0.15486261 -0.08674482 -0.05130815 -0.074990965 -0.06275085
-0.20632114 -0.13159437 -0.014769553 -0.027519826 -0.102607206 0.02052123 -0.10541894 -0.11741968
-0.15034178 -0.09212186 -0.20269 -0.055145405 -0.07687346 -0.15084057 -0.2070163 -0.08074653
-0.12879589 -0.055180334 -0.06513704 -0.046599183 -0.08529152 -0.09342759 -0.117187746 -0.09070622
-0.0586027 -0.10673961 -0.18549912 -0.21122476 -0.030642318 -0.15917844 -0.0341934 -0.1233238
-0.061150193 -0.22276808 -0.13574189 0.06380454 0.9758723 0.7520452 0.9831789 0.9231421
0.9483584 0.93613946 0.92565215 0.93652904 0.9365466 1.0108776 0.9658406 0.9514851
0.81362796 0.9553711 0.74706966 0.9010832 0.87940216 0.7774761 0.9442704 0.99818933
0.8084244 0.94933563 0.9890905 0.9634334 0.9665707 0.9342759 0.9985189 0.9048049
0.9988456 0.9665714 0.9542623 0.96930504 0.9594717 0.6146658 0.9973781 0.9875967
0.99280274 0.9982313 0.9457394 1.0050627 0.9447396 0.9636603 0.7081026 0.87404656
0.9734083 0.9708743 0.9111469 0.9450188 0.84344417 0.96095586 0.9475322 0.9418075
0.9108821 0.9175227 0.9622423 0.94704694 0.8941518 0.94379807 0.81299496 0.9368389
0.89214593 1.0189499 0.99538964 0.9882908 0.935106 0.8702103 1.0078118 0.9264255
0.9260615 0.9386375 0.9132459 0.798868 0.9171729 0.9267567 0.81974626 1.0146251
0.9354466 0.9297051 0.79721934 0.94147074 0.83820415 0.9868269 0.94481754 0.99122834
0.96761364 0.93637604 0.9811447 0.9414917 1.0123723 0.9637806 0.940277 0.80544233
0.9277622 0.949219 0.9277787 0.9517604 0.9306776 0.7751683 0.89397806 0.97795624
0.029529084 -0.002037451 -0.0043924158 0.04547852 0.028736841 -0.03909495 -0.03084848 -0.023738423
-0.008388694 -0.029072579 0.004904169 -0.0003773751 -0.038824253 -0.025005123 0.0016082363 -0.013072854
0.0044811578 -0.033314127 -0.03373387 -0.025029697 0.038912617 -0.019762937 -0.0610934 0.03791112
-0.021737557 -0.018435773 -0.018443238 0.006675323 0.054044656 -0.01817163 0.024638884 -0.036724325
-0.044807527 -0.005452735 -0.0355718 -0.043778293 -0.046549704 0.059349086 -0.0025015308 -0.044794228
-0.008878183 -0.020901306 -0.0074867443 0.05336765 -0.024345918 0.04837993 -0.006127138 0.035564777
-0.018652054 0.016371889 -0.017675282 -0.011158152 0.017454678 0.0012423263 -0.084664635 -0.023318922
00000000: 86fc bbbd abcf 5bbe 4e97 aabd 70ee ffbd
00000010: 8fec b1bd 6281 dfbd 625e d1bd 8888 88bd
00000020: 84fb 81bd 2a82 5abd 4cf4 ef3c 3c07 9bbd
00000030: f0f6 ffbd 783a d7bd 7a46 f4bd 2271 92bd
00000040: c1f6 46be 6c26 83be 9ee5 63be ab98 a3bd
00000050: cb79 fbbd 79e6 0fbd 4093 01be 82fc f4bd
00000060: 725e cb3b 819d 0dbe e871 80bc 6edb 8cbd
00000070: a3af 93bc 35af 97bb af70 06be feb3 173d
00000080: 15ff f0bd f81e d1bd 7abe e0bc 99ad 78bd
00000090: 721e 14be f298 c1bd 4455 e3bd 1d95 12bd
000000a0: 1d34 d23c 4fae c6bd 3482 2cbe 4eee 983b
000000b0: 213a 9fbd 4241 22bd fb82 aebd 1189 85bd
000000c0: 251f 48be aab3 61be d340 dbbd 30ed 0dbe
000000d0: 0680 21be 6cba 1fbe 05ae 6d3d 6031 efbd
000000e0: c2d5 4abe ebbc 98bd 9d64 fcbd 4e94 1ebe
000000f0: 45a7 b1bd 7f28 52bd dd94 99bd 8583 80bd
00000100: d945 53be adc0 06be fffb 71bc 4271 e1bc
00000110: ba23 d2bd 231c a83c e3e5 d7bd bb79 f0bd
00000120: 32f3 19be 63aa bcbd f88d 4fbe 26e0 61bd
00000130: d56f 9dbd f375 1abe 15fc 53be 705e a5bd
00000140: 12e3 03be c604 62bd 9266 85bd c9de 3ebd
00000150: 52ad aebd f756 bfbd 2100 f0bd 2fc4 b9bd
00000160: 6209 70bd 4c9a dabd 7bf3 3dbe 4e4b 58be
00000170: 9905 fbbc acff 22be 610e 0cbd 3091 fcbd
00000180: a078 7abd 511d 64be ecff 0abe f4ab 823d
00000190: c4d2 793f 0986 403f 9db1 7b3f 0a53 6c3f
000001a0: 9ec7 723f d6a6 6f3f 8af7 6c3f 5ec0 6f3f
000001b0: 85c1 6f3f 7064 813f 5441 773f 8794 733f
000001c0: ec49 503f 3393 743f f53f 3f3f 63ad 663f
000001d0: 8020 613f ac08 473f b4bb 713f 5689 7f3f
000001e0: e7f4 4e3f a907 733f 0935 7d3f 92a3 763f
000001f0: 2d71 773f b52c 6f3f ef9e 7f3f 4ba1 673f
00000200: 58b4 7f3f 3971 773f 894a 743f 6024 783f
00000210: f09f 753f bd5a 1d3f 2c54 7f3f 23d3 7c3f
00000220: 5228 7e3f 168c 7f3f fa1b 723f e5a5 803f
00000230: 74da 713f 71b2 763f 3646 353f 84c1 5f3f
00000240: 4931 793f 388b 783f ec40 693f c1ec 713f
00000250: f5eb 573f 3401 763f 7891 723f 4c1a 713f
00000260: 922f 693f c5e2 6a3f 8355 763f ab71 723f
00000270: 22e7 643f c09c 713f 7020 503f add4 6f3f
00000280: ad63 643f f36c 823f dbd1 7e3f a000 7d3f
00000290: 1b63 6f3f 1ac6 5e3f faff 803f 392a 6d3f
000002a0: 5e12 6d3f 8c4a 703f 7cca 693f 9d82 4c3f
000002b0: d8cb 6a3f ed3f 6d3f e4da 513f 3cdf 813f
000002c0: 6e79 6f3f 2701 6e3f 9116 4c3f 3a04 713f
000002d0: 8c94 563f b0a0 7c3f 90df 713f 24c1 7d3f
000002e0: 87b5 773f 57b6 6f3f 4d2c 7b3f 9a05 713f
000002f0: 6a95 813f 53ba 763f feb5 703f 7831 4e3f
00000300: d381 6d3f 0400 733f e882 6d3f 92a6 733f
00000310: e340 6e3f 6e71 463f bfdb 643f 575b 7a3f
00000320: fae6 f13c c186 05bb 41ee 8fbb af47 3a3d
00000330: 8669 eb3c 0722 20bd f4b5 fcbc 1577 c2bc
00000340: bc70 09bc 9e29 eebc 27b3 a03b 6eda c5b9
00000350: 2e06 1fbd 8bd7 ccbc 75cb d23a 862f 56bc
00000360: add6 923b 6574 08bd 872c 0abd 140b cdbc
00000370: d662 1f3d e2e5 a1bc 133d 7abd b148 1b3d
00000380: f612 b2bc 9e06 97bc 4616 97bc abbc da3b
00000390: ee5d 5d3d acdc 94bc 7cd7 c93c 3f6c 16bd
000003a0: 1988 37bd dbac b2bb bcb3 11bd de50 33bd
000003b0: e7aa 3ebd 0718 733d b9f0 23bb 277a 37bd
000003c0: cc75 11bc 3739 abbc 5d53 f5bb 0998 5a3d
000003d0: 1771 c7bc 092a 463d 29c6 c8bb 5fac 113d
000003e0: 31cc 98bc 571e 863c c1cb 90bc aed0 36bc
000003f0: 1dfd 8e3c 8ed5 a23a a764 adbd 5307 bfbc
